saved_params_25000.npy (npy, 836528 bytes, 1 tensors)

array f8 [104550]
00000000: a034 51a7 1eaa dbbf fd6b 48a6 2b4e 6a3f
00000010: 2cbd bc7b 524d b5bf b131 a59a d962 e73f
00000020: eccc 7b58 9b3d e3bf ebbe 4c3b d77d f8bf
00000030: 5f34 d45f e654 ebbf 6434 2bab d904 c6bf
00000040: 8a6d 46fc ff86 da3f 634b 1fa4 3ef8 ebbf
00000050: 17e7 a7e8 45c0 dbbf b2a5 d910 fc96 f3bf
00000060: 9234 6e44 7f29 f0bf 8893 ddf1 05d4 e73f
00000070: 1016 81db 51c7 b53f 1424 5e35 1fee f4bf
00000080: cc8f f071 7ec7 d8bf afcf d5af b4f8 f23f
00000090: 53b9 6bc6 ba99 d93f ac0b 4642 f86b f63f
000000a0: cd25 a6c7 dd22 e1bf 20dd 69cc 3fdf b53f
000000b0: de22 957e c923 e93f e6ed 6e96 397a 9e3f
000000c0: 122a ed37 a0d7 eabf c1fe a317 416d f7bf
000000d0: 1df9 4d43 c518 c03f 7c74 65da 5210 c7bf
000000e0: 181f 37cc c79d fcbf 20f1 fd9e 672a e33f
000000f0: 3dcd afc9 08ae b0bf ee49 7683 08e4 e53f
00000100: 91cc d53e e073 ebbf 3f0c 4f62 8b7a d43f
00000110: e843 914a 0e1e edbf 1076 44d0 3528 f3bf
00000120: 082a ccd6 55d3 debf 182d b3aa e988 a5bf
00000130: 63fa ca24 e1dd e33f db98 e9c7 4b5f bcbf
00000140: ce61 a23c ae00 f03f ef7a 9a9b 3849 e1bf
00000150: 4d7d 4a09 bbef f73f 3512 e294 f7f4 bcbf
00000160: fb15 d590 eb39 c3bf 51b5 eba4 5472 e13f
00000170: 2ef0 e1c7 2868 d43f c00d 26ce 9ce8 c6bf
00000180: 59ba 900c 3599 e0bf ec92 c4e5 9705 bf3f
00000190: c7d6 bdc8 10df debf 64a3 d08c dbbc c63f
000001a0: 2a2d 6804 ecb3 ec3f bef1 bba2 324d ee3f
000001b0: 43ac 8a64 2957 f7bf 10b1 5c9c f15a d73f
000001c0: e52e 9bf6 ede8 aabf 93f0 7bfc 6cc9 c0bf
000001d0: bee6 8f64 2ee3 e9bf 3a25 4d46 67df d93f
000001e0: 678c f4f8 ebe1 c5bf df4b 9ccd 0655 c4bf
000001f0: 58ed d8d4 f195 bdbf cafa 881e aa11 e03f
00000200: bfd7 78c0 ca2f f5bf 7301 ad9a b4db e4bf
00000210: 2374 0004 2c25 e93f 3193 3340 885d fdbf
00000220: c420 ac54 bb46 d83f 953f da43 0c9e 63bf
00000230: c761 ad0b f9db cf3f 77d1 83f1 ce8e ba3f
00000240: 1e40 ef1f d5e9 f93f a05f ab6a 52df cdbf
00000250: 1edd 4f47 1169 f4bf b1db baf7 5a7f cc3f
00000260: 8d06 4bf9 de72 e33f f41d 5407 1137 e4bf
00000270: 30ba cef6 bf71 e3bf 8883 9db3 2101 e2bf
00000280: b527 ba19 b75f f13f 306b 1c5e 6ab4 c3bf
00000290: 22a1 2d3d 81b0 f7bf 08a1 ecf8 9778 fcbf
000002a0: 0bb7 f8ac 5f7e da3f 79a2 f0ab 6c46 e73f
000002b0: 04d6 753c 44d5 fa3f 6c7d 2d6c b6c0 e5bf
000002c0: b855 0a3f b9cf 8abf 676a 5e97 227c d43f
000002d0: d2ed f8bf b43c f0bf 79af 5273 f049 f03f
000002e0: 5a80 5476 1dbf bfbf e6f6 5f60 487b e8bf
000002f0: c865 4f05 3e34 dfbf 9883 1d12 4c0d ea3f
00000300: 0c5a 8a8e c0d8 b23f 0ecf 8086 cc1a e1bf
00000310: 7480 d452 0a86 d8bf 028a 21e7 c551 c0bf
00000320: 643f 3eeb dc9a e4bf 1d67 414f fb70 d43f
00000330: 754e 270b ca0d fbbf 4a69 a8db a216 dbbf
00000340: 3942 846d f6a4 abbf 346a fe63 bf48 00c0
00000350: 2c00 7110 6bff f0bf 82d6 0cc1 105b fa3f
00000360: 42a7 6ec5 5997 ba3f 08c9 0157 23f2 b5bf
00000370: ca77 63d5 4dab c4bf 7414 cfda e3fa f03f
00000380: 512c 316a 2b2f f4bf 93ca 0e66 4fc4 00c0
00000390: 9bab 7869 f2d1 dd3f 0288 a8f0 b3c0 d73f
000003a0: 6ef5 e92c 7760 bebf 4622 5912 cc33 f6bf
000003b0: b01a 600d 65b5 ecbf b399 a759 6455 d43f
000003c0: 7961 c2b7 7d3d 98bf 1a4e f694 7cd4 d33f
000003d0: 499b 21cd d478 e53f 5e13 b8d6 f102 e2bf
000003e0: 16e2 3d68 7800 c53f 3d03 92f5 7359 eebf
000003f0: 0003 f7e3 adc4 e3bf 9991 2c0b 23c2 cebf
00000400: 044d bb89 9485 eebf e56a 2710 19a4 c2bf
00000410: 9fc4 090b 9c9a d53f 55fe 801a f0ec fcbf
00000420: 7bce 5ba4 4485 fdbf a0af 5e78 7db2 cebf
00000430: 33cd 77cc 9ea5 f5bf 1506 e6b0 1505 fbbf
00000440: 1d2b b4b3 1831 dc3f e5b3 d3b5 0e8a d4bf
00000450: 864e c81c 98a8 efbf 53e9 d8d8 c001 debf
00000460: ddb1 7017 fa1e e83f 3628 1f7f 3d4f e63f
00000470: 0353 e01b 6083 d7bf 6ea5 788e 8eed df3f
00000480: 61cb 64c3 e3f9 f3bf 3b67 9f0d 59fe e0bf
00000490: bc25 3b51 908b e0bf efd0 c131 63c9 923f
000004a0: d206 dd8b 653f d83f 4701 c207 de6e e3bf
000004b0: ce10 0f9a e369 ee3f 3faa 39c1 204c af3f
000004c0: cc69 b8c3 3dcf d2bf ce66 dbf5 12c5 c2bf
000004d0: 8898 2387 4979 e4bf c8a1 09f5 ce41 0940
000004e0: 7173 a561 fc29 f3bf c803 653b bcea c13f
000004f0: 69eb a56c 364b e53f f1ec a2bb 80d9 98bf
00000500: b19e 101c fc84 d73f c62a 7fbb 8c43 c73f
00000510: 5338 ba88 7462 ea3f d2d4 04ab b0fc db3f
00000520: 9413 c750 91c8 f2bf 13f6 31f4 a720 f9bf
00000530: 12e8 7495 4552 c53f b496 c4af 408a f4bf
00000540: 1253 c93b 01ad f53f 504f 09b0 35f3 d73f
00000550: 8c23 2bd8 c824 e4bf 7399 d107 7b54 d6bf
00000560: ed95 e67a 5e17 e93f ba7b 1065 cd04 e4bf
00000570: 6927 d8a6 853e 07c0 4cab 469a 2e2b ef3f
00000580: 090e 1a77 8285 b4bf 175c e83d 329f dcbf
00000590: 5e51 db70 c820 e5bf cc6d dfef 4e08 b13f
000005a0: 3ca0 a4a5 d440 ef3f c311 0d8f 1e15 c03f
000005b0: 4c8d 5b9c 32b5 eb3f 91ab 21f6 957b c0bf
000005c0: 4a16 9551 55b7 ed3f 52d9 4432 f776 e8bf
000005d0: 1395 fa39 1b2f f03f 8f41 74c9 2b00 03c0
000005e0: 0684 bac7 9e5a cd3f 1ad4 d4ef b37b dd3f
000005f0: 0ba5 23c5 9df1 f63f b061 7d3d 21f7 9e3f
00000600: 643f 821c 6708 f5bf 415d 69cf 4d8d d9bf
00000610: 06b6 b888 8e2d bebf 216a bd9c fdad abbf
00000620: 55ae 964a 0d06 d93f 26f5 ae8d 89ef b63f
00000630: 025d ef84 0011 f43f 58a9 3ad4 3518 ebbf
00000640: 4752 b1c9 4906 e03f 6ad4 0559 d0e7 f0bf
00000650: fbe4 1fff c418 d13f e960 be0b 9016 f5bf
00000660: ae6e 81c4 359f e4bf 3123 5753 63ec a93f
00000670: 1815 c867 af6f f23f d9a5 6012 91e2 f83f
00000680: 8b6d 8ebf c942 f53f 829b cdcd 3334 90bf
00000690: b8d4 4431 6777 e6bf 436a 6e8c 0b6f c33f
000006a0: fe1b 01ee 28ec e73f d92b 7d8c 50d4 f43f
000006b0: 219d 2159 fd4f cb3f 9dc4 a817 a400 e0bf
000006c0: 8d17 74e5 833f e43f 87bd 5001 011a d53f
000006d0: c8de 4100 34a3 d7bf b8d6 8cd3 872e ae3f
000006e0: f45e 479c 96ec e43f 8e55 37bb 468a bf3f
000006f0: 4c56 1e83 faef ebbf a5b3 4457 4164 c53f
00000700: b2d5 bdca 3908 e1bf 8b37 b320 c690 eb3f
00000710: a8f7 a70b 765c d0bf f286 dcf4 c033 8b3f
00000720: 11a5 e8ea 72a3 d33f 9c9e 9315 5338 de3f
00000730: e4d1 950f d1c5 d03f d7b2 0ea6 08b6 e5bf
00000740: 6c5f 8080 d423 e7bf e4ba b924 d5fc ebbf
00000750: 8ccd d9d0 f769 e8bf 12b5 8393 5e82 eabf
00000760: 934c b0d3 853e e93f ef4c 39a9 c421 d6bf
00000770: e5d0 223b a2a0 ea3f 9c1e 3a6a 3965 ae3f
00000780: 4a4f c639 c625 dc3f 937a 3867 783f a03f
00000790: 26fd 4e2e 243d edbf 2604 31fe c231 f8bf
000007a0: 5c80 ffec dcde ea3f f40e 2dba bfb7 dd3f
000007b0: 8026 1b3c af7e e23f 059b 7330 c3a5 c53f
000007c0: ff33 3acc cd50 fd3f f299 70b0 5a7e f4bf
000007d0: 1224 7e4f 063d f03f 2c75 84d6 16a8 ccbf
000007e0: 23a2 1125 15de febf 4a1d 61dd 1aa8 e4bf
000007f0: 7878 5b9f 1c0c dc3f 095e 6773 94be fb3f
-0.43225828494616714 0.003211102726948577 -0.08321109314851033 0.7308166523376284 -0.6012703636355616 -1.530722839011953 -0.8541137572916674 -0.17202301843500145
0.41448974262467486 -0.8740533071053104 -0.43361041755962176 -1.2243614824495634 -1.0101311371866228 0.7446317409454517 0.08507262810697847 -1.3081352314641252
-0.3871761429493261 1.1857191914141187 0.40000790955573 1.401359804993926 -0.5355061435122309 0.08543776264729219 0.7856185409846963 0.029763126188965837
-0.8388215153038934 -1.4641734050236865 0.12575593744618 -0.1801856581104494 -1.7885206200753085 0.598926363497899 -0.0651555530928833 0.6840860908144444
-0.8578950145005299 0.3199795208021818 -0.9099189239878998 -1.197316945595393 -0.4816488835937496 -0.04206018646945092 0.6208348959551809 -0.11082910185504906
1.0001661652114424 -0.540188125527349 1.496027981083745 -0.11311290154305527 -0.15020508357899573 0.5452063771350969 0.3188573791483148 -0.1789737707696144
-0.5187020535866608 0.12117909774367391 -0.4823648414961607 0.1776384770940026 0.8969631277153998 0.9469235590363991 -1.4587797095689587 0.3649257685635954
-0.052558361390394194 -0.13114702537848597 -0.8089820827583123 0.4042604624306311 -0.17095708518999972 -0.15884480514122765 -0.1155692238470939 0.5021563145054071
-1.324167968601145 -0.6518195172321114 0.7857875898513423 -1.835335017001125 0.37931712406908624 -0.0023946990539300364 0.24890053816012722 0.10374158283577183
1.6195880172199462 -0.23337774475544126 -1.2756512437461605 0.22263657661616557 0.6077723378186463 -0.6317219870697373 -0.6076354809245625 -0.5626381404982661
1.0858679776160731 -0.1539433440710467 -1.4805920018935201 -1.779441807137177 0.4139632405448174 0.727346740551254 1.677067028210673 -0.6797744858594519
-0.013091513859118872 0.3200766065798803 -1.0148208140297936 1.0180515770725533 -0.12400993479650549 -0.7650491602250582 -0.4875636150223639 0.814123187428879
0.07361987571707845 -0.5345213534369309 -0.38318117226481907 -0.12749551568693113 -0.6439041704743258 0.31939585437577184 -1.6908665118870918 -0.423256601819635
-0.05399293982384674 -2.035521298600793 -1.0623579637758764 1.6472327748319064 0.10387192793009795 -0.08572598337358184 -0.1614777843414557 1.0612524554465184
-1.26151601296694 -2.0958545659316967 0.46593914318025903 0.3711366510561903 -0.1186594471600608 -1.387645789787841 -0.8971429120291159 0.31771191363659596
-0.02367206987455137 0.3098441557606023 0.6709999090643147 -0.5628594583255155 0.16407685365608476 -0.9484195514961368 -0.6177586986960648 -0.2402995876847285
-0.9538061800070925 -0.14563287056701948 0.3375616176409241 -1.8078461680705875 -1.845036165262086 -0.23982208611903122 -1.3529346453695552 -1.6887413892840233
0.44049661206433816 -0.3209263587621634 -0.9893303453595343 -0.4688570134782328 0.7537813623253516 0.6971728785367819 -0.3673935196141402 0.49887432015619637
-1.2485082275931847 -0.5310483232562783 -0.5170365892928923 0.01834635726159289 0.37886942537816737 -0.6072836066742092 0.9504259118043821 0.061127685153071536
-0.2938990031558688 -0.14663922314394146 -0.6398055686411377 3.1571330207409325 -1.1977504553135214 0.1399760522854463 0.6654312250169429 -0.02426720757715101
0.3674917482444285 0.1817489543448884 0.8245184584100208 0.4372979803186584 -1.1739667086960468 -1.5704726733087042 0.16657323644341254 -1.283753096192794
1.354737504521101 0.3742193431000844 -0.6294903013268693 -0.34890628589200573 0.7841026688008107 -0.6255862211145236 -2.905528357955451 0.9740212453083159
-0.08016219527967662 -0.4472165684287019 -0.6602518276436447 0.06653302532452371 0.9766638980117999 0.12564451203264868 0.8658688596591815 -0.12877153890744045
0.9286295503049555 -0.7645221692862754 1.0115005745695427 -2.3750835169414084 0.2293280101048653 0.46067522450477016 1.4339883518935632 0.03023960054210456
-1.3145514596580705 -0.39924950842892676 -0.11788264120033184 -0.054061818488396314 0.39099437984507307 0.0895925494105155 1.254150885846514 -0.846705355176975
0.5007676066694068 -1.056595180268483 0.2671368113947918 -1.3180084666001284 -0.6444348180770783 0.050631622241388625 1.152266888996854 1.5553141324875155
1.3288056833906434 -0.015824136196353596 -0.7020755731852182 0.15182632786748415 0.7475781105539452 1.3018346298074361 0.21337859012712904 -0.5000782453627327
0.6327533227456442 0.3297121537061333 -0.3693361284744978 0.05894875008963879 0.6538804104156655 0.1232036788054158 -0.8730442582042968 0.16712204705382053
-0.5322541198535673 0.861422599665944 -0.2556433786229442 0.01328230616815371 0.30685112896260686 0.47218777758687636 0.2620737697791624 -0.6784709208783067
-0.7231237897676528 -0.8746133534712865 -0.762935550605492 -0.8284142380850048 0.7888821730179124 -0.3458110477997271 0.8321086077690124 0.05936602994648618
0.43980556146674543 0.03173424015061701 -0.9137135414565918 -1.5121488503793983 0.8397049549930773 0.4643401449322788 0.5779644178339396 0.16912116876411445
1.8322275140410509 -1.2808482067281344 1.0148985963044237 -0.22387967562182476 -1.9292193840029845 -0.6455206226172916 0.43823924600827224 1.734028292461405
