saved_params_10000.npy (npy, 836528 bytes, 1 tensors)

array f8 [104550]
000000 81 fb 5e af 40 b4 ef bf 96 4c d5 76 88 ff 93 3f
       -0.9907535004821143 0.01952946877765934
000010 49 dc af 72 0f 36 bf bf d8 b8 6b 9b 6a 88 ee 3f
       -0.12191864538168419 0.9541523967325487
000020 f9 c8 b5 f1 51 94 d1 bf 65 fe 20 01 d0 1a f4 bf
       -0.27467774013997787 -1.2565460247132247
000030 e6 a5 6d cc 82 5a e6 bf 0f 9b bf 37 3c 91 c1 bf
       -0.6985486977329713 -0.13724472734539758
000040 f0 57 28 25 fe d3 e6 3f 17 bd 03 4c d9 ee e9 bf
       0.7133780217870918 -0.8104063496265635
000050 bb 85 68 a5 25 a2 d9 bf 7f 16 8d d5 71 3e f5 bf
       -0.4005216708484018 -1.3277452794876863
000060 bd 41 98 5e c3 c4 eb bf 49 60 57 e3 2e 60 ee 3f
       -0.8677689406923076 0.9492411079654711
000070 bc 77 69 40 86 3a a6 3f 45 46 ae ad a7 55 f5 bf
       0.04341525589255421 -1.333411863747089
000080 49 e9 4a 16 2a 8a 71 3f 32 11 49 aa e9 ec f1 3f
       0.004282154467256946 1.1203400279783406
000090 53 4b 06 ba 5f 67 dc 3f c5 c3 06 be 3e e0 f4 3f
       0.4438094441076618 1.3047473357112136
0000a0 60 f1 ed d8 d7 f2 ec bf ab f3 04 96 c0 a8 a4 bf
       -0.9046439396766282 -0.04034997779169854
0000b0 ca 07 7e ce c4 13 e6 3f 92 f6 fa eb e8 bd b2 bf
       0.6899131806424006 -0.07321029435385132
0000c0 8d 6a 89 9f 5a ea e9 bf bf 89 8c b9 82 1f f8 bf
       -0.8098576656296516 -1.5076930282599361
0000d0 83 2f b9 b4 2a 2e b1 bf e3 a7 e9 77 dc 28 bc 3f
       -0.06711069976989674 0.1099984925037059
0000e0 d9 3f cc cc 13 48 fd bf 62 fa 2c 15 61 aa e0 3f
       -1.8300970077434526 0.5207982457721523
0000f0 61 1b 96 44 f8 88 ce bf e2 e0 75 04 84 b6 da 3f
       -0.23855498646681908 0.417389873844071
000100 3e ac 9e d3 c8 06 eb bf b1 68 9d 44 c7 6e e2 3f
       -0.8445781834792638 0.5760227527746534
000110 9a f2 88 6a f2 a8 ee bf 2d 70 77 56 cc 39 f0 bf
       -0.9581234055290964 -1.014110887298567
000120 2d 90 0c 16 4f 38 d2 bf 5f 35 50 9b 4a b0 c8 bf
       -0.28468682435255027 -0.19287998756082467
000130 ac b5 38 96 c6 5f e8 3f 51 72 f9 7f e6 0d cb bf
       0.7616913732542137 -0.2113617062449458
000140 f8 df b4 63 68 eb f0 3f ca e9 4d a0 35 8c e3 bf
       1.0574726004397217 -0.6108654147095021
000150 46 10 73 19 93 ea fa 3f 41 ee bd f6 6a 3f b3 bf
       1.6822691911811645 -0.07518642925236298
000160 7b 0e 1a b9 a2 d0 c0 3f 56 bf 79 25 76 49 e2 3f
       0.131367054349642 0.5714674694008675
000170 4d a5 3e 8c b8 c9 e4 3f 4c 2a 2c 6f f9 b2 a0 3f
       0.6496241320757378 0.03261546594702178
000180 be 4f db e0 af f9 ea bf f9 65 6a 45 5a e6 c4 3f
       -0.8429793731434001 0.16327980412897583
000190 fc 48 64 4f 72 f5 d2 bf 7e cf 74 d5 4e c4 c1 3f
       -0.296230866938586 0.13880334303541625
0001a0 18 3f ab 9c d4 ce e6 3f c2 e0 16 a1 ae fa ee 3f
       0.7127478656711643 0.9681008478428554
0001b0 ff f6 bb c2 65 1f fa bf 1d 2d 6b de f3 90 e5 3f
       -1.6326654059225232 0.6739444107164761
0001c0 16 f3 f9 4b 02 f4 df bf 33 41 77 32 dd 7d c6 bf
       -0.4992681257206625 -0.1757160660186031
0001d0 8f 68 5e 90 58 73 e9 bf ac ef e3 ca bf f6 d2 3f
       -0.7953303165152351 0.2963103753424956
0001e0 ad 30 d0 65 8d 4e d6 bf 22 c4 12 7a d4 d2 bf bf
       -0.3485444540281247 -0.12431076031022362
0001f0 11 29 96 f8 59 cd ce bf 78 68 bd db dc 74 d9 3f
       -0.24064182889953448 0.39775773486110877
000200 d0 8b d1 99 aa d8 f8 bf 87 72 3c 6b df ba e1 bf
       -1.5528970726525024 -0.5540616125541228
000210 b8 8b e2 f2 e7 ee e5 3f 4a ff da c4 a9 13 fc bf
       0.6854133361670085 -1.7548005761782002
000220 f9 40 eb 91 7d ab dc 3f 32 c0 20 47 5e b7 d9 3f
       0.44796694993875935 0.4018169111832349
000230 06 cf f0 5b d1 77 d1 3f 27 ee 65 20 1d 8e a4 3f
       0.2729380987031934 0.04014674206242957
000240 fa a0 a9 ab 9c b3 f9 3f 1b f2 38 1c e2 a3 d3 bf
       1.6063505845614245 -0.3068776393518264
000250 4d df 52 b6 8d 80 f6 bf 46 97 b3 a6 c7 09 cc 3f
       -1.4063851472873978 0.21904845847819326
000260 50 33 e1 e6 a5 92 e1 3f 1f f7 fa 7c 3a 31 d5 bf
       0.5491513738030367 -0.33112966733084365
000270 e5 f6 30 ba 99 33 e4 bf 2b 96 d5 6d 2b 6d e1 bf
       -0.631298888830966 -0.544576372642671
000280 18 15 c6 76 bb 89 f1 3f 47 3e 9e 81 f7 9d d3 bf
       1.0961260451889014 -0.3065165296365859
000290 24 1b c2 fc 79 14 f9 bf 53 f0 0c 25 6f bd ff bf
       -1.5674991486900547 -1.983748573998146
0002a0 c6 dc b2 51 ae fd d4 3f 42 f6 a5 34 61 8e e7 3f
       0.3279834554518398 0.7361303356444255
0002b0 f2 8a 38 02 95 6f fc 3f 5b 8c 90 fa 99 ea e1 bf
       1.7772417151215305 -0.5598878759232194
0002c0 3f c6 1d df eb 86 b1 3f 8d 0b 89 49 62 60 d3 3f
       0.06846498677421041 0.30275780850586714
0002d0 5f e2 2a 61 91 00 f4 bf f7 c6 74 7a 83 e6 f9 3f
       -1.250138644753086 1.6187777312701976
0002e0 a1 54 3b 68 1e df d0 bf b8 79 16 4d 03 6a e9 bf
       -0.2636180894745142 -0.7941910272236816
0002f0 37 0b 14 8e a0 7b e2 bf d6 52 3e b9 24 89 eb 3f
       -0.5775912070242616 0.8604911439930116
000300 f7 fb b8 ea 4b 3e e0 bf ef 29 69 6c f2 19 de bf
       -0.5076045593667676 -0.4703336771678143
000310 05 c6 c1 9c d4 15 df bf af 68 0b ce 78 37 ae bf
       -0.4857074290112851 -0.059016966964649746
000320 2b b8 bd 74 ce df dd bf 58 8a ca eb 4e 3e dc 3f
       -0.46678506279465876 0.44130299593431266
000330 0f 0f f6 bb 3f 3b f8 bf 49 b0 e2 4a 6e d1 dc bf
       -1.5144650785668465 -0.45028264344251007
000340 78 2e ae ce 2d 40 e6 bf 48 d8 b6 89 4c 5f fb bf
       -0.6953343426443572 -1.7107663516485605
000350 27 58 9a 0f 87 76 e1 bf ed 2a 51 50 02 00 fb 3f
       -0.5457186989540376 1.6875022065530019
000360 5a f6 39 bd 28 03 d6 3f cf 05 25 0c 88 45 c7 3f
       0.3439428184427463 0.18180943100928323
000370 5b 07 bf f0 4d 1d cf bf 3d 6a 23 70 70 9c f2 3f
       -0.2430818009871086 1.163193166771307
000380 a2 c2 ba 6f 07 72 fa bf 0a 4e 58 dc 31 60 fd bf
       -1.6528391231951578 -1.8359850508903741
000390 f1 aa 7d 41 b1 da e5 3f a7 b1 a5 d2 e8 77 da 3f
       0.6829458502882898 0.4135686928846333
0003a0 60 6a e1 b8 06 f6 26 bf bb 27 99 44 03 4d f5 bf
       -0.00017517883356073499 -1.331301944696391
0003b0 48 84 b6 ab 71 25 f1 bf db ef 64 a6 a7 8f e2 3f
       -1.0716416080033628 0.5800359964264276
0003c0 12 cc 18 ea e4 31 d3 3f 51 ad 3c 6d c2 4d df 3f
       0.2999203001119791 0.48912106197049804
0003d0 8b d8 e0 e5 63 47 ea 3f a6 b7 d6 49 02 9d e6 bf
       0.8212146272478703 -0.7066661302721868
0003e0 1c 43 81 a1 c1 dd bc 3f fd 65 9f 2e 07 b9 ea bf
       0.11275873368255102 -0.8350864325140602
0003f0 c7 8f 02 dc 15 78 e2 bf af d5 7b 95 6c 14 d2 bf
       -0.5771588608808934 -0.2824965915491146
000400 51 b6 79 a7 a3 14 ed bf 16 a6 c3 26 5b 90 b4 3f
       -0.9087694426540996 0.08032769867318054
000410 e7 9e ac 37 88 54 d9 3f 12 07 2b e7 d9 0e fa bf
       0.3957844299024899 -1.6286257772448534
000420 56 ef 78 0f bd 1b fd bf 8e 63 f9 bf 6e 5b ec bf
       -1.8192720989599898 -0.8861612081046688
000430 41 ae 94 59 33 c9 f5 bf 8a 5c 28 d9 93 63 f9 bf
       -1.361621236729562 -1.5868109209748433
000440 ab 5f b9 c2 1a 51 e5 3f 7c 12 2e c9 00 86 db bf
       0.6661504557805434 -0.4300538983009472
000450 f1 cb 53 85 10 08 ec bf fb a9 82 51 46 c6 d8 bf
       -0.8759844402360369 -0.38710172615051847
000460 6c fb 20 de 11 1f e4 3f 3b 37 43 e6 e3 7a e1 3f
       0.6287926996663891 0.5462512490573553
000470 f7 d2 d5 eb d4 e8 d6 bf b2 e0 2e 4f 70 01 e3 3f
       -0.35796092062746204 0.5939256235642658
000480 d7 e5 23 78 97 8f f1 bf a1 8d af 08 cd 6b e0 bf
       -1.097556561753995 -0.5131592912334108
000490 ba 83 05 b3 6b 3d e0 bf 27 76 bc ad 95 1e c7 3f
       -0.5074976440920331 0.1806208704301053
0004a0 64 4a d0 0d 3e d1 da 3f 6f ab 9d f4 c3 1e df bf
       0.4190211424731045 -0.4862527741267319
0004b0 53 b0 b1 6a 8f 74 e2 3f c0 42 d5 52 3a 3d b5 3f
       0.5767285426968648 0.08296551248828177
0004c0 84 0f 50 fc 84 e8 dc bf 82 35 9a 08 37 1e cf bf
       -0.451691862486989 -0.24310958786047016
0004d0 96 25 99 14 51 e4 e8 bf d4 23 fa 49 ba 9a 07 40
       -0.7778706934270072 2.9505506305181175
0004e0 a3 8d 27 ec ca 14 f2 bf d6 b0 de 66 a6 78 96 3f
       -1.1300763344560003 0.02194461825244861
0004f0 93 1a 6c f2 91 44 e6 3f 4e 0c 5a 37 71 a2 c2 bf
       0.6958703741846243 -0.14558234408113652
000500 bd bb 81 f7 eb 86 d2 3f 36 f7 b4 68 b7 86 cc 3f
       0.289484969812232 0.2228612195266863
000510 f8 01 d9 cc 7b b7 e1 3f ff db c4 90 2d 0c e4 3f
       0.5536478997165082 0.626486571075361
000520 d2 c9 54 3c 43 df f3 bf 47 e4 fb 90 3e 15 fb bf
       -1.2420074803054502 -1.692686621039927
000530 a6 c0 a2 03 b7 d2 c5 3f b6 b5 e7 eb b5 ed f5 bf
       0.1704930083992668 -1.3705348219913112
000540 df a0 39 e0 88 98 f3 3f 3f 3b ed 17 9d f2 e0 3f
       1.2247399100106617 0.5296159236257622
000550 91 0c 05 d7 24 f6 e2 bf f0 d8 fb 4c 02 ea cc bf
       -0.5925468635181393 -0.2258913875481947
000560 2b a6 58 04 ad 42 eb 3f 35 82 76 c8 30 a0 e6 bf
       0.8518891415489568 -0.7070545115748873
000570 e5 b0 40 23 e9 2c 08 c0 2b 94 cb 8f 23 12 f1 3f
       -3.021929049884522 1.066928445530048
000580 09 61 f4 93 1b 97 b3 3f a5 e3 f5 60 4c 8f dd bf
       0.0765244709222125 -0.4618712374572687
000590 8d ed db 4c 2c 12 e9 bf 1b 19 52 18 4c b4 9c 3f
       -0.7834683896211786 0.028031529411714034
0005a0 7d a9 c7 af 67 f2 ed 3f db 1e 24 9d f8 28 c5 3f
       0.9358404572679287 0.16531284020333356
0005b0 53 eb 52 f4 91 90 ef 3f bf 25 b2 02 0e aa d7 3f
       0.9863977214766727 0.3697543169333492
0005c0 ba fc 9e a9 07 d0 ef 3f 50 7b 34 2c 11 9d e4 bf
       0.9941442788039219 -0.6441732276324306
0005d0 2f 57 a7 91 d0 e1 e2 3f c0 23 ab 68 5a d7 01 c0
       0.5900652737425157 -2.2301529099681545
0005e0 2b 19 a8 30 15 04 b9 3f a7 33 30 9f f6 10 e1 3f
       0.0977185481825457 0.5333207234522107
0005f0 b7 5c 54 f2 bd 94 f4 3f e3 0d 79 85 fa fa cd bf
       1.2863139596936841 -0.2342217590067853
000600 5c 96 c8 43 d0 7c f5 bf eb 7f 22 ac ec e6 d6 bf
       -1.3429720542711925 -0.3578445130351599
000610 9a 66 a0 96 8b 78 96 bf 03 7f 19 5f 79 0b a4 bf
       -0.021944218700901 -0.03915004049190254
000620 18 10 3a 70 ed 45 d0 3f 3b 93 13 e5 2d 37 b8 3f
       0.2542680355038569 0.09459196894347326
000630 45 e8 a1 0f 4a 97 f1 3f de fe 3b 83 2d 5b ef bf
       1.0994358645098299 -0.979880100552659
000640 a6 0f dc 1d dc 50 e8 3f 86 03 9d b9 45 d9 f2 bf
       0.7598705847926694 -1.1780450106163882
000650 b0 29 5b 63 97 05 d8 3f ea aa f5 f7 5a 7f f4 bf
       0.3753412695192777 -1.2810926137851149
000660 c3 f8 5f 25 10 de dd bf 2b a4 15 0b f5 91 b3 3f
       -0.466678654192844 0.07644588013285218
000670 bf 95 50 a4 66 bb ea 3f 58 eb cd 29 a3 2d f9 3f
       0.8353760918877738 1.5736419327719968
000680 c7 70 8d 37 48 4d eb 3f e4 15 83 15 9f dc c6 3f
       0.8531838498124892 0.17860783148186876
000690 d3 79 24 63 96 48 db bf b9 1c e1 40 d4 78 7a 3f
       -0.4263053863704986 0.0064628878736307455
0006a0 0f 24 d6 14 19 aa e4 3f cc c7 a1 e3 af ed f7 3f
       0.6457639128649378 1.4955290691254843
0006b0 a5 04 f7 f6 40 f6 bb bf bb 54 66 22 fb 7b d8 bf
       -0.10922628430764066 -0.38256719931934996
0006c0 b4 b4 ab 52 81 e7 d7 3f 40 33 49 aa f4 da e0 3f
       0.37350495408356754 0.5267279935738785
0006d0 2c da 4a e1 b6 78 d2 bf 9e fe 14 5b 14 a9 d6 3f
       -0.2886178207512866 0.3540697946045642
0006e0 96 68 60 1c e1 b6 eb 3f e0 0d 88 e9 e0 4e bf 3f
       0.8660741380911243 0.12229734136058523
0006f0 f8 be 57 52 d1 0a dd bf bb 0b 0c 3a 7b 02 ca bf
       -0.45378525773320133 -0.20320072492913063
000700 56 30 57 48 d7 a0 e0 bf 23 e7 6f f0 b9 b1 e7 3f
       -0.5196339047338465 0.740445108035804
000710 70 d0 2b 79 19 36 d2 bf d4 11 6a dc 82 83 bb 3f
       -0.28455197175140423 0.10747545129021968
000720 9f 2f 43 9e 2e 2e d8 3f 62 16 b5 97 0a 3a d3 3f
       0.3778187318355268 0.300417564536792
000730 38 6d 0e b8 35 06 d3 3f 1e 3e ad c0 d2 a1 eb bf
       0.2972540185380299 -0.8635038150040975
000740 ea 32 52 65 e1 d4 e7 bf e9 40 91 54 60 88 f4 bf
       -0.7447363833358314 -1.2832949927724775
000750 b4 1c 74 c9 16 c9 e8 bf 75 15 8c 81 83 39 e7 bf
       -0.7745469984664823 -0.7257707147806928
000760 0f 9e 8c 09 fe 5a e1 3f 24 7a c4 85 b5 75 c8 bf
       0.5423574625501163 -0.1910921958123747
000770 8f 3c 02 9e 7b 77 e5 3f 04 8f 6f 1f 74 4e b0 bf
       0.6708353124721657 -0.0636971070048809
000780 e9 1d f8 db 41 24 ca 3f 3d b0 80 0e 41 57 c8 3f
       0.20423148384746462 0.19016278465403672
000790 01 6b b5 5f da 40 ea bf 15 bc be 21 66 47 f8 bf
       -0.820416628771767 -1.5174313848654084
0007a0 7d c3 d6 11 2f c9 eb 3f c1 0a fa f4 c6 1e de 3f
       0.8683085773865141 0.47062848971851784
0007b0 d7 d3 f1 81 85 d9 e9 3f 82 70 b3 cd ad cd bb 3f
       0.8078029191952919 0.10860716125483985
0007c0 95 16 82 0b e6 6e ff 3f c3 62 a0 81 3e c9 f3 bf
       1.9645748567139993 -1.236631876328986
0007d0 5f 6a 2e 3b a8 b0 e6 3f 15 4c 4e 49 4b 78 dd bf
       0.7090645938763592 -0.4604671684148241
0007e0 18 b9 ae e6 83 e0 fd bf 6e 3d 97 06 c7 e8 e4 bf
       -1.8673132906947725 -0.6534152153707689
0007f0 19 70 f6 45 66 36 d0 3f e3 f6 0e 4d af 35 f2 3f
       0.2533202822903618 1.1381066331954848
