saved_params_5000.npy (npy, 836528 bytes, 1 tensors)

array f8 [104550]
-1.123778387908816 0.0974493140395376 0.032342279610778464 1.0552429358497633 -0.5193652615626315 -1.2648086973107056 -0.5181667428239228 -0.05081443384815114
1.2527975345286455 -0.9165795296634098 -0.3035672767485502 -1.3308620570207825 -0.7276621724444784 1.2518320128451508 0.021745522745872548 -1.337870415444093
0.22481230711190206 1.1432824740056322 0.4405187883839072 1.256452108441165 -1.04863606488269 -0.07734455990226814 0.6157522371528342 -0.047487682138131114
-0.8369432017773604 -1.5445607669660633 -0.24660883785986226 -0.2954987891972223 -1.8614785354111978 0.6188691516574685 -0.3294613080219854 0.41842955846621804
-0.9542015703972976 0.5655475804456619 -0.957376208042051 -0.8527418085792821 -0.0538719906528866 -0.1855191358254203 0.9792985584154061 -0.22278326723552672
1.0885765825280682 -0.5109276480746833 1.8668343557191924 -0.09460160284199168 0.2883661679366327 0.6025939616532714 0.7672052791083955 0.08234220181581675
-1.0746636197537536 0.2325596667083376 -0.17394846848793238 0.16129231262898044 0.5572179109091157 1.0103216274080524 -1.5299032796592196 0.8117651342635446
-0.7194011320009727 -0.20104640592591716 -0.8343244129771596 0.25652850034025465 -0.6110123572600498 -0.02380440791133493 -0.3499862271993339 0.34066413116626126
-1.674257634844938 -0.4919029173635952 0.8323722963501031 -1.6844820321938037 0.5110123798920986 0.49842525747219696 0.27726181639244274 0.05114861045259945
1.60205419546506 -0.2889383705444909 -1.492188817911968 0.18353243361103067 0.48276648831296765 -0.22503079490902042 -0.5755939159805598 -0.48021685387993274
1.1557636345820541 -0.43358922771322567 -1.6189797266235484 -1.939273256144174 0.28269803142691824 0.6895257843880758 1.8226099868653323 -0.4855107830437797
0.05678572490376449 0.34003443853909604 -1.4699798825561217 1.7021667251237669 -0.30045966199968444 -0.7954264030544581 -0.6668781106186499 0.7675871729328662
-0.576993878518858 -0.48918651440152233 -0.5763026119975134 -0.07658685558318576 -0.5184429647529029 0.6184494963517125 -1.4566146381597314 -0.48366736522328524
-1.3962740195143808 -1.360993953376082 -0.26887996482484566 1.6719567735605043 0.39843265428260594 0.2586740325406838 -0.3874270516895568 1.19601347472056
-1.733612830899541 -1.5540388750213239 0.6270126597920405 0.41682221109688805 0.20638830504850497 -1.2697698876089256 -1.1971155096040547 0.6351516661382454
0.409306044150125 0.5530591508613656 0.8779013641010551 -0.7672124460306133 0.15816215863236238 -0.7850195290456021 -0.9220850206743972 0.16328299195551865
-0.852267573329409 0.2859747052663845 0.4099708245520776 -1.6064381233500296 -1.721040986585722 -1.1155977799022225 -1.3891927408887599 -1.4386379117269141
0.8151778513917654 -0.4472509251140671 -0.767648296289332 -0.3560228373288563 0.5782530600247152 0.3862920021649209 -0.26225918796433945 0.6748362346315938
-1.137208604046669 -0.42214128547134383 -0.7179881307981654 0.2320279597773432 0.4667005600280197 -0.33743127554486196 0.7858861886436934 0.0008464867031854382
-0.5336354307093281 -0.257776693161017 -0.451652033802141 3.0518916617306067 -1.0405973264992523 0.019097200332808147 0.7012776953875758 -0.31251126627274195
0.13421479639092299 0.24345070311402628 0.39141152308364097 0.7462607454894209 -1.2508839088725563 -1.7005368012920703 0.3481132116939361 -1.349886938878005
1.096499918553963 0.5421062629891826 -0.4641260656356305 -0.14977317549134903 0.8863218463260066 -0.7337896464951895 -3.130152590001933 1.0965620750058704
0.24155616532994356 -0.38896113645233116 -0.8377128181136296 -0.04116045935430919 0.8611334574018771 0.21279189520498554 0.986373013182289 0.5036093267717783
1.1289460439853343 -0.583235211790228 -0.07077172695111432 -2.215958464115123 0.07639579114967414 0.6290941722387685 1.1073427456687515 -0.30242556087472344
-1.3549162551321299 -0.27457499602865515 0.06645516741909549 0.04752058166067508 0.03905353396470563 0.0586906631635849 0.9890759474809482 -1.0271304866138
0.8626754664241039 -1.2582159302144003 0.3315541461525473 -1.3431135058813628 -0.41157194386511886 -0.054171243373886624 0.6030422936954876 1.4684461362028423
0.2608198982667052 0.3721158622508293 -0.26313927898184913 -0.11702906450562112 0.6699467992422555 1.5929759924213034 -0.2865589822239582 -0.38137697878977067
0.4571309637767393 0.6605283956832151 -0.1959115771638607 0.2938928759988061 0.9299726021259378 0.27077516228266124 -0.43878614849666125 -0.2136113750733531
-0.4796010015654876 0.6944121592086878 -0.2374769270503222 0.17060626083533847 0.4245892128370498 0.1537487655719084 0.33971414914534814 -0.9999710799826735
-0.7570942906476683 -1.8126029606849994 -0.8211208268596001 -0.5618610177483033 0.6689511127579225 -0.20934742477980348 0.689924009900232 -0.19170302027981156
0.026749717234881665 0.013196857835835013 -0.7258690503063124 -1.5059637515942887 0.7961598127457948 0.42110397943831646 0.8853580863881098 0.10459582739484631
1.9759337512503334 -1.2505590762591998 0.08581597102832494 -0.5261621494804608 -1.8598694640941464 -0.6585882097745436 0.05956502432393933 0.8321316120535597
00000000: c851 000c fffa f1bf 4044 d130 70f2 b83f
00000010: c9aa 69d2 2a8f a03f c6f4 ac6a 46e2 f03f
00000020: 2fe1 a2e5 a39e e0bf 6055 6a0b a83c f4bf
00000030: 05b7 c96b d294 e0bf 06cb 1577 5904 aabf
00000040: 9cf5 746d 750b f43f 0acc 0298 9e54 edbf
00000050: dc54 7171 a56d d3bf c843 2603 364b f5bf
00000060: 5dee 252e 0249 e7bf a717 3401 8107 f43f
00000070: 109e 1c54 7544 963f 9ce4 09cf ea67 f5bf
00000080: bd57 6451 a6c6 cc3f 481b 3f90 e24a f23f
00000090: ab79 58b7 7531 dc3f b9eb ab86 6d1a f43f
000000a0: 923c 419c 36c7 f0bf ddc2 4d63 dacc b3bf
000000b0: 0b54 2009 3eb4 e33f fb02 7e33 4e50 a8bf
000000c0: 0cc9 071c 3dc8 eabf dadc cc59 85b6 f8bf
000000d0: 569f c1de e090 cfbf cc04 e7c0 73e9 d2bf
000000e0: cfc0 7cb7 9dc8 fdbf 2ce8 dbad c6cd e33f
000000f0: a71d d0e1 e415 d5bf 33b2 52c5 8cc7 da3f
00000100: 57be 54bb d188 eebf d112 4b3d f718 e23f
00000110: 8f4a f06d d3a2 eebf 03f5 7830 a949 ebbf
00000120: de93 0c0c 1c95 abbf 9a80 934e 17bf c7bf
00000130: 6e40 2dee 6956 ef3f deb1 6f7f 2984 ccbf
00000140: 5864 5247 cf6a f13f 774b 63f0 8459 e0bf
00000150: 83cf 8db3 8dde fd3f 5604 5b86 cf37 b8bf
00000160: 34e2 235f 9774 d23f 102c c221 7348 e33f
00000170: ffd9 e215 f28c e83f 282b e1e7 6014 b53f
00000180: 91b1 d07a d231 f1bf a0c3 70e1 83c4 cd3f
00000190: 8627 ac83 f143 c6bf 0f39 ebfb 39a5 c43f
000001a0: f733 03a8 bad4 e13f 9a8b c202 472a f03f
000001b0: 31df 82dc 7b7a f8bf 383d f6df faf9 e93f
000001c0: 2bc9 d485 5505 e7bf 500f 377d e3bb c9bf
000001d0: b8b8 7f1c c9b2 eabf 2c03 dd83 f66a d03f
000001e0: f147 7cc9 698d e3bf d257 ebc5 2e60 98bf
000001f0: b8c7 f7a1 2c66 d6bf d0e0 91ed 70cd d53f
00000200: 0fcc ab5f c2c9 fabf 6d8d b85f 567b dfbf
00000210: 9171 dd39 cba2 ea3f 568d 6f6e a3f3 fabf
00000220: 2b9b 6fa2 365a e03f 57fb 150d 33e6 df3f
00000230: 4072 7558 a8be d13f b16f 4292 2630 aa3f
00000240: 8812 7f94 03a2 f93f 5e14 035d f77d d2bf
00000250: 8838 c661 01e0 f7bf 70ad 0ea4 fd7d c73f
00000260: 702c ba69 a5e5 de3f 7712 5d20 cfcd ccbf
00000270: eb37 9dee 436b e2bf a4bf 9978 dfbb debf
00000280: edf9 4602 027e f23f e146 3b08 edbf dbbf
00000290: 38c3 2b49 57e7 f9bf b658 d264 4307 ffbf
000002a0: 07d2 e77b b917 d23f ce41 b660 9810 e63f
000002b0: 8731 ef16 6929 fd3f 10d1 c1d1 9b12 dfbf
000002c0: a8c1 aebe 0413 ad3f 4381 42ce 1fc3 d53f
000002d0: 13b4 15a0 0985 f7bf 9eef 0b2d 133c fb3f
000002e0: 3093 8329 bb3a d3bf 4fcd 6f12 2274 e9bf
000002f0: d8cf 70c3 1057 e5bf 996c 92f9 1290 e83f
00000300: d461 c7dd bb76 e2bf dfeb 3ff4 d44e dfbf
00000310: 4a1e e42c 1271 e2bf 9683 0838 329b b3bf
00000320: 598f 4eb3 1597 e0bf 67dd 2199 56ca e33f
00000330: b055 9c26 4b4e f7bf 24b2 f1f6 67f4 debf
00000340: 8619 216d 2357 f6bf 45dd 7c98 a1c6 f5bf
00000350: dc3a de4f 5435 d1bf e849 ecbe 55c0 fa3f
00000360: 5758 f3ac eb7f d93f 1c8c 8587 1d8e d03f
00000370: 08e9 25d5 9acb d8bf 8600 7806 df22 f33f
00000380: 6c3b cace e0bc fbbf 13de 0ede 57dd f8bf
00000390: 6283 7fda 7c10 e43f 2d15 3a11 37ad da3f
000003a0: dae7 3a96 ee6a ca3f 6a9d cb3a fa50 f4bf
000003b0: 668a b497 6227 f3bf 9f09 4296 2953 e43f
000003c0: cb83 6bfa 1132 da3f c27f b61a a9b2 e13f
000003d0: b4b0 fd99 c417 ec3f 0a24 991d 018d e8bf
000003e0: a437 6559 a83e c43f 201c 7f46 e11e e9bf
000003f0: 57b2 fd71 b881 edbf ec92 3803 75e6 c43f
00000400: d683 5ca5 c645 ebbf 138d a6d9 684d d23f
00000410: 1ffb f044 f63c da3f 3860 2d76 f8b3 f9bf
00000420: 4861 0746 6289 fbbf 5ab9 c20e 7dd9 f1bf
00000430: 4153 df2a 223a f6bf ff71 da2f a904 f7bf
00000440: 78d6 84dc ef15 ea3f 591f 1e58 c29f dcbf
00000450: cf91 ec28 9390 e8bf 6038 bd02 14c9 d6bf
00000460: 49c7 b38f 0c81 e23f f24c 0017 02b9 d83f
00000470: 8078 d8c2 dac8 d0bf 55c0 bc28 4298 e53f
00000480: 9cc3 31a6 0132 f2bf 3903 d9e1 5c04 dbbf
00000490: a137 963e c2f9 e6bf 5a2a 8099 17b3 cd3f
000004a0: 3d18 9606 6cde dd3f 3e37 4759 7998 d5bf
000004b0: ba49 d3ca fa25 e93f 2780 745a d8bc 4b3f
000004c0: 2045 5c9c 8a13 e1bf cb0b b3d0 697f d0bf
000004d0: 8388 96ee dde7 dcbf 5e8b f02c 466a 0840
000004e0: bfe8 d961 49a6 f0bf 9f8f 7f6b 378e 933f
000004f0: 0d53 e3eb dd70 e63f 6a78 1141 2f00 d4bf
00000500: 3eb4 9150 f32d c13f b00e 0884 6429 cf3f
00000510: 8ffe baea e20c d93f f14c 0537 5ee1 e73f
00000520: 5234 7bd8 9e03 f4bf 2f1a b313 6635 fbbf
00000530: 95fb e1a2 7c47 d63f 1375 fc0b 2399 f5bf
00000540: 4f18 a47f 438b f13f 9ed9 cf3b ef58 e13f
00000550: 6013 48d0 3db4 ddbf 3bd6 4675 c42b c3bf
00000560: cb6a f6a1 bf5c ec3f 3fe3 ba6c 347b e7bf
00000570: 4d62 ec70 8d0a 09c0 20f2 a2ac 848b f13f
00000580: 9ea0 1efb 4feb ce3f 8d93 1e40 bde4 d8bf
00000590: fd9d a71c 8bce eabf 2a54 a1d5 fb12 a5bf
000005a0: 010a a1c0 678e eb3f d42f 61cb c33c cb3f
000005b0: 0ccc 2823 5e90 ef3f 6e40 8e4e 911d e03f
000005c0: 73d9 1dba 2910 f23f 1e78 10e4 dca9 e2bf
000005d0: cf89 bc8c 181e b2bf ca59 656e 48ba 01c0
000005e0: ab36 8ab0 ac8e b33f 99d4 fb19 8a21 e43f
000005f0: 1bc3 e106 adb7 f13f f79b 5bbd f05a d3bf
00000600: d8c7 c9aa bcad f5bf 8b83 0f01 a392 d1bf
00000610: a618 b7b2 3403 b13f b12e 3d20 9e54 a83f
00000620: a9e0 5726 d3fe a33f 087e bcdd b30c ae3f
00000630: bd1b f699 82a6 ef3f 82b1 8b60 206f f0bf
00000640: 5e4c 6b94 099b eb3f ab3b f906 a721 f4bf
00000650: 6c04 a5e1 2e38 d53f c238 6996 647d f5bf
00000660: 7084 b6d9 3157 dabf 0858 594d 55bc abbf
00000670: bedc 305a 1f4c e33f 3ddc 2e60 c17e f73f
00000680: 21e6 4cf1 45b1 d03f 772b ac0c bfd0 d73f
00000690: b348 6121 46d7 d0bf 90ad bbe4 9df5 bdbf
000006a0: 8dc5 1945 3470 e53f c833 ec64 d47c f93f
000006b0: 7bb9 417c fb56 d2bf c35b d6fc 7a68 d8bf
000006c0: 5b3e da3a a241 dd3f 7e3d 3172 0c23 e53f
000006d0: cacc 696c a113 c9bf ea4d bc10 24cf d23f
000006e0: 50d2 09e7 55c2 ed3f 0bae a458 6154 d13f
000006f0: 0bc8 6e7f 1215 dcbf a22f ff16 9e57 cbbf
00000700: 3a91 3666 c8b1 debf b8df 37d9 9f38 e63f
00000710: cc2b 9ed9 a465 cebf 80eb 630b 6dd6 c53f
00000720: 17a6 d73b 782c db3f 8342 f71f 0aae c33f
00000730: cc55 246a e0bd d53f 9215 af59 c3ff efbf
00000740: e23d 4ace 1d3a e8bf c565 4cf6 6b00 fdbf
00000750: 91a5 2d2f 9f46 eabf 250a 04f5 c3fa e1bf
00000760: f560 fd29 0c68 e53f 7f2d 777b e5cb cabf
00000770: c6e4 6784 db13 e63f 30b7 527d b989 c8bf
00000780: cde3 cd22 4764 9b3f fddb 8446 f406 8b3f
00000790: 69d0 07bb 513a e7bf 69f1 6072 6d18 f8bf
000007a0: db3e c424 247a e93f 2ccb f91a 5ef3 da3f
000007b0: 8527 497b da54 ec3f 297c f5c9 cac6 ba3f
000007c0: acec 8ab5 6c9d ff3f dcfc e33b 4a02 f4bf
000007d0: 1888 0a15 09f8 b53f 2d2c 0d01 52d6 e0bf
000007e0: 82d0 b17b 06c2 fdbf 4969 d094 2713 e5bf
000007f0: f6dc e98e 4e7f ae3f 0b9c 7779 d2a0 ea3f
