saved_params_30000.npy (npy, 836528 bytes, 1 tensors)

array f8 [104550]
00000000: 192c b8c0 4a70 d0bf 721c 055b b1d2 843f
00000010: be03 f83e c593 bfbf 8d9e 9fe1 1406 e53f
00000020: 6c19 feb3 51da e2bf ea71 becb 3ee5 f8bf
00000030: cb83 9006 d3df eabf 2a74 0a2a 9456 c7bf
00000040: 93ef 3e66 a85a d93f 800d 9d0d 2ade ebbf
00000050: 3f17 8409 e595 dcbf 4765 a200 03c0 f3bf
00000060: dc83 3c9c 0a62 f0bf 043f e51f 596d e83f
00000070: abea fee4 cfd7 b03f 441a b3da a2bd f4bf
00000080: 669b ced3 bd79 d8bf a06a 6ff2 b461 f33f
00000090: fcca c6b2 3fc9 da3f 0aec cee2 fd34 f63f
000000a0: 00af aa28 8a17 e0bf dc13 0410 ec03 c03f
000000b0: f598 5f3d 77aa e83f 12b3 1059 969d 8d3f
000000c0: 16e1 0fa0 69c3 eabf 61bb a8cf 6ea8 f7bf
000000d0: b263 e9f5 d3d5 c53f cf6a a2b3 8686 d2bf
000000e0: 5115 3576 17a3 fcbf 06b3 3b31 a831 e33f
000000f0: 84c3 edb6 316c b5bf 3525 d6b7 1628 e63f
00000100: 0282 2b6f 2d2f ebbf de51 2d5a ca61 cd3f
00000110: 1ada 0c97 990b ecbf fc87 51f6 9313 f3bf
00000120: b53c 3df9 3269 e0bf f1b7 2cd9 1c50 96bf
00000130: e388 9934 5d81 e33f 379f f29c 5c70 bdbf
00000140: 03e7 0b45 e14c f03f 28b6 da79 2f06 e0bf
00000150: 195d d4f0 873c f73f 5f5a a2c6 de1a bbbf
00000160: 72c7 78e1 e282 c8bf 4941 469c c2b0 de3f
00000170: f273 8ae1 9e44 d03f f0d7 2e51 c0d1 cdbf
00000180: fda6 37c2 3a90 dbbf 2ce0 7993 271f b83f
00000190: d923 3699 b9dc ddbf 646b 0b6c 1763 c63f
000001a0: edc9 afa4 78e0 ed3f 70b0 ce99 bf09 ee3f
000001b0: b2b1 bf9f 3521 f8bf 3396 f685 cad2 d43f
000001c0: fd1a 605b 3175 913f 2be6 1498 5d4c c0bf
000001d0: 71f0 6e50 cb9d e8bf 05b5 3229 451c d83f
000001e0: 85dd bc2a eccd c5bf 1d0f dbd1 c389 c0bf
000001f0: e34f a736 d4a5 b3bf 8444 a8a0 7911 e03f
00000200: 4226 d2cd 85c2 f4bf 136c 4ebc 27f4 e4bf
00000210: a232 8ef2 b557 e93f c3a7 a847 dc30 fdbf
00000220: dfca 5704 d258 d13f 5d9e a9b8 5a93 b4bf
00000230: b636 acf6 e344 d13f 465f 37c4 9772 b33f
00000240: a8ae 42c5 eed3 f93f 29c0 e32f 7792 cebf
00000250: b542 585d c5a7 f4bf e475 99a5 1fd5 cd3f
00000260: caad 49a2 3b7e e43f 902c 8dea aba3 e6bf
00000270: e93d e70a 5c3d e3bf 4373 8008 4c17 e2bf
00000280: 02ae 8a0e 3b18 f13f f3da 7558 adb9 c2bf
00000290: 8645 6907 bc81 f7bf 812d 1389 79fd fabf
000002a0: 3a13 4816 ecb1 da3f a00a b2e8 536d e73f
000002b0: 6657 a8a7 34e8 f93f ca64 a731 a6da e5bf
000002c0: dd3a 4810 b5e6 a1bf 518b 7efc 7b1e d53f
000002d0: eac6 5717 f8ac efbf d7c4 c8d0 c9ed ed3f
000002e0: 8b17 4bcf 2cd9 b7bf e276 c0f1 2b28 e9bf
000002f0: 24e7 57f0 081b ddbf 6215 400c 3a03 ea3f
00000300: 467c 8403 2f2b c33f 0f4c 3933 acc6 e1bf
00000310: c46f a89c e1da d6bf c681 4920 ce8b c1bf
00000320: 1d28 9be1 f3ec e3bf 4b56 7f65 9240 d43f
00000330: 41bd fb0d 5b86 fbbf 2369 ba36 3553 dcbf
00000340: 72bb f3fb 2b73 82bf 3e18 30a8 5b98 00c0
00000350: ac72 1807 11e1 f1bf 363c 1680 c36b fa3f
00000360: c3ed 8d96 43be b13f c3a8 5f2e eee8 bebf
00000370: cb96 e3ed 1143 bdbf 8b7c 8fad 7465 f13f
00000380: 97d8 ece5 1ba5 f3bf ed6c c646 7fd8 00c0
00000390: 74d5 459b 16e1 da3f e492 fd0c 6fdf d73f
000003a0: 2bf4 4cc1 bbc7 c2bf 6806 7b7a 9a35 f6bf
000003b0: 9078 2d20 f0eb ebbf 67fd 4fc1 f00a d13f
000003c0: 182d 6082 7fae aebf 32c4 d98a 97e7 d33f
000003d0: ee07 4f39 ef4c e53f 689f 0708 5eb9 e1bf
000003e0: ed99 be2f 8d0f c23f 6dfd 04a9 b641 efbf
000003f0: 6583 f268 cad5 e4bf 40f5 becf 03ec d0bf
00000400: e20e 4d4b f1d5 eebf 538f b36b 4133 c6bf
00000410: a159 213a 4e1d d53f 0575 0feb 7290 fdbf
00000420: 2b68 f7a7 f160 fdbf 002c 1a8f 6828 c7bf
00000430: e5ea a89e 0c8e f5bf 7405 807b 01e5 fabf
00000440: 5f3e 2bc2 1154 d93f bd13 9724 766b d3bf
00000450: 245d 2098 500c f0bf d307 6cd4 cb80 debf
00000460: daba 7905 2b05 ea3f 92f3 710c ce0d e53f
00000470: ab75 fb5a 298b d7bf f22c 90f7 7e29 df3f
00000480: d1e0 492f 1163 f4bf d4d0 08fe d4d4 e1bf
00000490: 20f5 561f db90 e1bf d8a9 37fd 885d 8cbf
000004a0: 6233 fd05 e95c d93f ccd1 a414 b602 e4bf
000004b0: 3d17 d4ea 8ff3 ef3f 4455 7792 2a9a a93f
000004c0: 42fb 60a9 e874 d2bf 8be4 4872 dcbd c2bf
000004d0: e2d8 c23f 2258 e2bf 7285 aff2 c959 0940
000004e0: 6585 7ea5 40ec f2bf bb18 d6a0 68f3 c23f
000004f0: 4ede 833e fb81 e43f cb7a 0dbf dbcc ae3f
00000500: a6d8 14a1 3b6e d23f b8ec d9aa 3aab c53f
00000510: e9d6 e3a1 62fe ea3f dc29 b4e6 5f10 dd3f
00000520: 69cf 0f74 98b1 f2bf a673 e3e5 a793 f8bf
00000530: 317b 2eea 752a cb3f a773 784e f31b f4bf
00000540: 0d81 6340 eba1 f53f e689 6a42 c4ec d53f
00000550: bf24 ea24 f7fd e2bf 060e 26d8 3e27 d9bf
00000560: f1f4 156d 2347 e83f 2324 0fe8 27cf e3bf
00000570: a568 a500 5823 07c0 1409 0fba d2f7 ee3f
00000580: f470 7f08 d0a9 c7bf 690b 0f76 7f05 dabf
00000590: 070a 1600 7f36 e4bf efaa bbf2 c962 b03f
000005a0: aea3 c05a 2536 ee3f e965 0490 d70c be3f
000005b0: 2f62 e73c 24df ea3f 1fde e23e f799 c0bf
000005c0: ca48 7251 ab2e ee3f 25de 769a 2065 e7bf
000005d0: 797a a2f8 76e6 f13f a6b5 3e6f 7e2f 03c0
000005e0: a8bc 3008 5992 ce3f db7d 878e 9160 dc3f
000005f0: 8b2b d505 84e6 f63f 3cb1 4c47 4152 9ebf
00000600: 23a8 80ef 64db f4bf 767f c10a caec d8bf
00000610: 7c03 0d73 b6e1 c0bf 6a13 b6b4 003e a5bf
00000620: 86b5 2816 fea5 d43f 69af 322b b91d b83f
00000630: b131 3b30 cc09 f53f e5e3 233e 97cc eabf
00000640: 1dfa d09e f827 e03f fc0f 014a 8989 f0bf
00000650: 90c9 28bc f06f d23f 2cf6 81a7 8f57 f5bf
00000660: f786 8b43 c3c3 e5bf baa7 6743 fed7 b93f
00000670: 465c c588 54b9 f23f 610b 9308 b12b f93f
00000680: 1cbe 3396 f924 f73f 2108 3b12 178f 9dbf
00000690: 259b f4fd fa09 e7bf 170e 83e6 b0f8 cb3f
000006a0: 0ffa 107f cac9 e73f b207 e6cf fd6a f43f
000006b0: 958b 2722 4d27 d33f 6661 4640 46cd e0bf
000006c0: 3c80 7e53 b0b6 e53f 4b3c 4c14 81a5 d33f
000006d0: 08b4 54e5 5052 d8bf 869d 4b94 7159 aabf
000006e0: b046 4c22 cc63 e33f f536 158b 517d b53f
000006f0: 5884 d7f9 8ad6 ebbf c95e f07c 1971 cf3f
00000700: b9b7 64c3 db2b e1bf 26af 91f5 5773 ec3f
00000710: 94df 1f3d 9aa3 c0bf aa3b 5cb4 37d3 aa3f
00000720: f6fc c593 055f d23f 3ccc 20b5 6a7c df3f
00000730: 6ab5 289a 028e d13f c7b6 d80e d286 e4bf
00000740: 5a86 2738 1a22 e7bf f2a7 885e a6d8 ecbf
00000750: 818f 0ead f58d e8bf d328 d91f 1b7b e9bf
00000760: 5612 45d0 d808 e93f 7749 8f2f 149e d7bf
00000770: bb05 4a85 2c81 eb3f d07c 81ff 5b6a ba3f
00000780: efa7 9882 2d1c db3f d98f 73a0 0cca 933f
00000790: 3682 5624 4657 ecbf 7da3 fe6a 9859 f8bf
000007a0: ca4e ac11 f392 ea3f f0b2 d7e2 1fcd db3f
000007b0: c747 cccb e2be e03f 6e86 e0ab f949 ca3f
000007c0: c396 ba75 3c17 fd3f 9130 75c9 5d61 f4bf
000007d0: f83f 1632 c328 f13f a1d9 3089 8480 c8bf
000007e0: 380f 02da 20b9 febf 14d6 c515 b6d5 e4bf
000007f0: 4b59 aaab c611 e13f aabe f659 6f0d fc3f
-0.2568537599588026 0.010167489614685919 -0.12334854876827614 0.6569923788747062 -0.5891502871971119 -1.555968089937887 -0.8398223045552354 -0.18232967427039287
0.3961583136076509 -0.8708696618927405 -0.446648844998311 -1.2343778633861164 -1.0239359000190609 0.763348161979565 0.06579303112713812 -1.2962978880838287
-0.3824305122783954 1.2113542051435289 0.41853325327535607 1.38793743702877 -0.5028734964630246 0.12511969358470665 0.7708088110637435 0.014460730164580524
-0.8363540769778719 -1.4786213027652695 0.17058801181226851 -0.2894608263247109 -1.7898172967409958 0.5998116456590601 -0.083682162437766 0.6923936453396552
-0.8495089694297919 0.22954682734656634 -0.8764160108756329 -1.19227977960736 -0.5128416889146111 -0.02178998065499366 0.6095415141428727 -0.11499575454456311
1.0187695214394246 -0.5007550601928346 1.4522780806926845 -0.10587875699489178 -0.191494331449174 0.4795385862462536 0.2541882708117661 -0.23296359981549086
-0.43067807165662925 0.09422538137903363 -0.466596984501448 0.17489903236022564 0.9336512772118205 0.9386899951982866 -1.5081077804744436 0.3253656681284582
0.01704861755572561 -0.12733049321995912 -0.7692619868244163 0.37672547362565495 -0.17034675680927705 -0.12920425173626252 -0.07674909910502907 0.5021331918561747
-1.2974908866766701 -0.6548041036470543 0.7919568765078859 -1.8244288252994785 0.27104616569628875 -0.08037344940532294 0.26982974137431925 0.07596729793965293
1.614241381214848 -0.23884477461206302 -1.2909597059516902 0.23306651674185652 0.6404092950519324 -0.7074794369776942 -0.601240178390012 -0.5653438726472831
1.0684156959567876 -0.14629141635278806 -1.4691734590054195 -1.686883483361129 0.4171095101922223 0.7320956749757279 1.6191908406376228 -0.6829405755808236
-0.034963281858031194 0.32998561532638343 -0.9898643928447346 0.9352768972222759 -0.0931575780951716 -0.7861537667956464 -0.4547750804045896 0.8128938903106866
0.14975536033395737 -0.5555020332780048 -0.3571094541418882 -0.13707901550789198 -0.6226748854035155 0.31644115363937847 -1.7203016802048554 -0.44257860512301955
-0.009008735300509694 -2.074393571822866 -1.1174478795211753 1.6513094905274222 0.06930944848675495 -0.12074173576516771 -0.11430465753400225 1.087269475908928
-1.227809808869585 -2.105711510591951 0.4199882999740432 0.37301231640439725 -0.14672038019662756 -1.3880867752453927 -0.8725510242909582 0.26629275205774267
-0.05992506472110842 0.31101025161393914 0.6656414145766101 -0.5538778454619946 0.14109959441448386 -0.9767716694986298 -0.6510974931480688 -0.26440520560921144
-0.9636160345766849 -0.17343919524057103 0.32991367031845625 -1.847765844540221 -1.836167961233978 -0.18092066752828373 -1.347180003895738 -1.6809096168729782
0.39575618707474364 -0.30343392918831197 -1.0030065481603936 -0.47661109680495634 0.81313086575923 0.6579351656979375 -0.3678687466143297 0.4869077127084004
-1.274186310502092 -0.5572304689035499 -0.5489326107123453 -0.013850279071410052 0.39629579148168237 -0.6253309634399158 0.9984817110532515 0.05000432050625617
-0.2883855489816832 -0.14641910152730406 -0.5732585187277233 3.168842216474041 -1.1826788391702732 0.1480532441457337 0.640866872882677 0.060156695434434214
0.28797808390243984 0.16928799955699048 0.8435528909601234 0.45412442712463785 -1.168358281484837 -1.5360487918871768 0.2122332948174175 -1.256823832059334
1.3520309939559099 0.34257608877137924 -0.59350163659942 -0.3930203543497729 0.7586838846761151 -0.619037583580511 -2.8922576952437162 0.9677518495521178
-0.1848697701924561 -0.40658556489159153 -0.6316523553544479 0.0640073983774234 0.9441096088895529 0.11738345399898943 0.839738959267441 -0.12969866343131373
0.9431969252348378 -0.7310946480637922 1.118765803555702 -2.398190373517269 0.2388411798469623 0.443394078434691 1.4312782504882502 -0.02961065290144059
-1.3035630565232246 -0.3894524674451455 -0.1318882047435429 -0.04148866849849393 0.3226313797375372 0.09420354179991154 1.3148919948608688 -0.8374744619060236
0.5048792936211758 -1.0335781946932903 0.28808229803976193 -1.3338772338169163 -0.6801468199957686 0.10095204492213741 1.1702466337790312 1.5731668791711046
1.446527086951284 -0.028866157996851997 -0.7199683151310167 0.21852694755044474 0.7433826905979134 1.2761209603345205 0.2992737611331731 -0.525057912384949
0.6785508757348064 0.3069765756817488 -0.38002416987984633 -0.05146365103956456 0.6059322996026903 0.08394345899179341 -0.8699393157695665 0.24563902473959434
-0.5366038147237681 0.8890800281783171 -0.12999275192828164 0.05239271237052574 0.2870496695613406 0.49196880043308844 0.2742926125964319 -0.6414575853320564
-0.7229128929868225 -0.9014465185512093 -0.7673290615098126 -0.7962775823628142 0.7823299472589251 -0.369023367352518 0.8595182994178495 0.10318541515288193
0.42359483483835353 0.019325444501092057 -0.8856535634732328 -1.521873872707345 0.8304381699731149 0.4343948092708123 0.5233015041760546 0.20538254635271208
1.8181728934081753 -1.2737710828251105 1.0724517780799925 -0.1914220495106749 -1.920197345346379 -0.6510878014802892 0.5334199288215954 1.7532800211155668
