saved_params_20000.npy (npy, 836528 bytes, 1 tensors)

array f8 [104550]
0	0xbfe2089ba6fac832	-0.5635507832832956
1	0xbf858c63df7a15e0	-0.010521679170106546
2	0xbfb3fbdd9503975a	-0.07806191337621496
3	0x3fe8cf009961d2d1	0.7752688403839675
4	0xbfe185973fd55dc3	-0.5475574728724769
5	0xbff8321347eb873e	-1.5122254189850106
6	0xbfe9cb0519d7f5d3	-0.8060327057607374
7	0xbfc5a948a017d8df	-0.16922862832115634
8	0x3fd79d547fbfeef7	0.36897766566811135
9	0xbfec8691b2ef52c7	-0.8914268965550826
10	0xbfdf21788d74b632	-0.4864179021268199
11	0xbff48900fa237154	-1.2834481974633336
12	0xbff033c1ddf7f29f	-1.0126360579153368
13	0x3fe9a1f9a0ae4bf0	0.8010223520562914
14	0x3fb36d30dd245765	0.07588487051938626
15	0xbff4f9d45329614d	-1.3109935043813323
16	0xbfd50d43f4aeffa7	-0.32893465895539936
17	0x3ff283534c8aa561	1.1570618619828894
18	0x3fd8cc0e544f84a8	0.3874545882554892
19	0x3ff5bff247d7dbbf	1.3593619161963344
20	0xbfe20cb3c1a3c0f2	-0.5640505582832971
21	0x3faa5f959b97ec91	0.051510501139966476
22	0x3fe99faf041d6015	0.8007426338544997
23	0x3fa77b93cabb549d	0.04586469506981781
24	0xbfe9d598b2ae1a8f	-0.8073237886281549
25	0xbff74225fc6b3e00	-1.4536495075334415
26	0x3fc900424c8be626	0.19532040345784302
27	0xbfc3e8e1cb8887ed	-0.15554449499273862
28	0xbffcdab3692bd705	-1.8033937557460729
29	0x3fe25dabbb9f09cc	0.5739344276883513
30	0xbfb2ad76a1b3ce98	-0.07295934150516314
31	0x3fe49854e6866777	0.6435951712075924
32	0xbfeb032b471477b3	-0.8441368473320295
33	0x3fdbd524e5d506a2	0.434884285397951
34	0xbfee28ad3fb7f30e	-0.9424654240134218
35	0xbff340e3e24a3080	-1.2033423270650303
36	0xbfe001388d862a56	-0.500149036802507
37	0xbfb1a48622c7eacc	-0.0689166865267154
38	0x3fe46f44fe9bff8e	0.6385827038611624
39	0xbfbfbecc1de7ac2b	-0.12400508623220279
40	0x3fefdfed6d1b13ae	0.9960848933193256
41	0xbfe2fd83d0d02b06	-0.5934466436750376
42	0x3ff8a6069576bba8	1.540533622591946
43	0xbfbdec9379353140	-0.11689111432241805
44	0xbfbdaf6f22a53039	-0.1159581622679874
45	0x3fe1c25afe2909b3	0.5549750293796961
46	0x3fd72fbf68531601	0.3622892874521711
47	0xbfc22f6400e30cba	-0.1420712475138311
48	0xbfe2fac52ccadc26	-0.593111598477553
49	0x3fbfeefa6845c55c	0.12474026723591208
50	0xbfdd3d2b7e6e8278	-0.4568585142788275
51	0x3fc5a59d973c2de8	0.1691166866734044
52	0x3fecb8d696eda6ba	0.8975632617777685
53	0x3fee36049bbc8d5b	0.9440939943055285
54	0xbff8d90941597492	-1.5529873421394638
55	0x3fdaed7908bcae8e	0.4207441888163225
56	0xbfb78693f53dddf6	-0.09189724671693242
57	0xbfc2ddf9ef04203d	-0.14739917917927584
58	0xbfe7f678a968d304	-0.7488368328837116
59	0x3fd91cb254fa76a7	0.3923765020243572
60	0xbfcbd174e08c400e	-0.2173296066689549
61	0xbfc564ae8e9418ff	-0.16713506662217267
62	0xbfbfff3588989074	-0.12498793206083453
63	0x3fe052e546d512dc	0.510119093269704
64	0xbff67fac9f46555b	-1.4061704847020653
65	0xbfe56c882f52f355	-0.6694985317513821
66	0x3fe74440715d3457	0.7270815099851785
67	0xbffd3cb3d64442d0	-1.8273199434080887
68	0x3fdb95125903f455	0.4309736127177691
69	0x3f8d3b1b922b5cdf	0.014272895239101078
70	0x3fcfc385987a6b9b	0.24815435357308221
71	0x3fb51b82a733a8f8	0.08245102483821032
72	0x3ff990020072a4cf	1.5976581590169194
73	0xbfcc07f53430aece	-0.21899285362575543
74	0xbff4d071a4450f72	-1.300889627150323
75	0x3fcbd0e954aabf30	0.21731297144060013
76	0x3fe219a92c1ef250	0.5656324254737886
77	0xbfe1c74c4af14c94	-0.5555783714029467
78	0xbfe39710d0e9d86e	-0.6121906357136717
79	0xbfe24b1a8e0853f9	-0.5716679357598188
80	0x3ff14f493690b744	1.081856930871667
81	0xbfc3deec4d0dba7b	-0.155240571616975
82	0xbff7f36c111af316	-1.4969292324232746
83	0xbffdd05283c1d172	-1.8633599421273996
84	0x3fd9297756a6ee0b	0.3931558939181918
85	0x3fe797529d085167	0.7372220103302823
86	0x3ffa975a98fb8aee	1.66195163496803
87	0xbfe57037bbb88456	-0.6699484507008815
88	0xbf82f70e4052a2ff	-0.0092602837924729
89	0x3fd56a020eb867f1	0.33459521710903944
90	0xbff11f5ebe43b3a0	-1.0701587135510877
91	0x3ff1ffa53c35f5bb	1.1249134399398446
92	0xbfc3f3be79b74de3	-0.1558759779278339
93	0xbfe9d6abbacb9fa6	-0.8074549339626074
94	0xbfe05ce813b8c3c8	-0.5113411317053016
95	0x3fea0bbfbce3d616	0.8139342011697319
96	0xbfbe5728bdf4489c	-0.11851744306139483
97	0xbfe0557651dcffb8	-0.5104323958294037
98	0xbfd97a002cda2a96	-0.39807133083437785
99	0xbfc1c08cb40172e7	-0.13868864812220424
100	0xbfe606ffa234fbd0	-0.6883543174843627
101	0x3fd56093aec0f3b6	0.3340195852832112
102	0xbffb1866c5886935	-1.693457385647503
103	0xbfdb887a8182c6cb	-0.4302049889330248
104	0xbfaf3d7355b20b94	-0.061015705309748786
105	0xc00049e837c78ce3	-2.0360874517224246
106	0xbff022c1716570a8	-1.0084852628270173
107	0x3ffa8e804b9f1641	1.659790320774292
108	0x3fbdac8bd7155ca0	0.11591409684239062
109	0xbf9f464575042cbc	-0.03054150129996168
110	0xbfc34ed76268e3ef	-0.15084354691660404
111	0x3ff1ea79f692bcb3	1.1197452193990045
112	0xbff4607c49b5e1eb	-1.2735560302081648
113	0xc0005cdb689c5f26	-2.0453403637619827
114	0x3fdf7e6ca59509d2	0.4920913331044662
115	0x3fd84aa469134147	0.37955580006839224
116	0xbfc68d33cfdbaf46	-0.17618415498088263
117	0xbff6264c46654844	-1.384350085242219
118	0xbfed093ed8d6519f	-0.9073786006070356
119	0x3fd6900a8796ea2e	0.3525415729633633
120	0x3f9acbdcebc805a7	0.02616830052466459
121	0x3fd3a8cd41a4e2bd	0.30717784319453384
122	0x3fe5ecfbd6c3f0cb	0.6851786799084264
123	0xbfe1ac41b1b4d558	-0.5522774191692106
124	0x3fc2f9d8cd903588	0.1482497218825467
125	0xbfedfb77d95251e8	-0.93694679685228
126	0xbfe3861a3a31ff5e	-0.6101199280383118
127	0xbfd571c02f345312	-0.3350677929859539
128	0xbfeeac6f9197c58b	-0.9585492938623913
129	0xbfbca0737a982b8e	-0.11182328932788563
130	0x3fd6528bafecf22d	0.3487881868384502
131	0xbffcc47fa81f4d10	-1.7979733054424436
132	0xbffdb323a9e4f233	-1.8562351833817388
133	0xbfd4f9ef32d936d1	-0.3277547833030044
134	0xbff5e22367a71073	-1.3677095459870798
135	0xbffb4b1d26c2c0bb	-1.7058383478252341
136	0x3fdeba0b72dac77c	0.48010526863355785
137	0xbfd5fb688018819e	-0.3434697390494196
138	0xbfef375c78e821e1	-0.9755079614124577
139	0xbfdd897195cd0f05	-0.4615138972187512
140	0x3fe83c061f0b6163	0.7573271375977523
141	0x3fe3e1b2f40ad2ba	0.6213011518908254
142	0xbfd7a3dc07d43dd8	-0.3693761898475407
143	0x3fe09f5d7803a7d3	0.5194537490872285
144	0xbff37821474ecc20	-1.2168286118947051
145	0xbfe18ae663909b2c	-0.5482055611254046
146	0xbfde1a30fa48bc9f	-0.47034859124955547
147	0x3fa3dee43179f95c	0.038809901275260045
148	0x3fd7a375e4e2c2ef	0.3693518386090053
149	0xbfe27aaf0160ce36	-0.5774760271946835
150	0x3feb1d4125205eb4	0.847321102631176
151	0x3fad75104deb9549	0.057533750068425045
152	0xbfd282ff0319c138	-0.2892453699378339
153	0xbfc7a6bb62213b0f	-0.18477575580114844
154	0xbfe50a844915bdfa	-0.6575337817611733
155	0x4008b19e94ea6cd5	3.086728251842582
156	0xbff337fe883401dd	-1.2011704750476533
157	0x3fbc9d95a36d62cb	0.11177954902576485
158	0x3fe595d5a8d6f778	0.6745403573656708
159	0xbfa56b024d5715ba	-0.04183203882306992
160	0x3fd88b044c9a4dce	0.3834849117349365
161	0x3fc9bc70f6385018	0.20106327078303887
162	0x3fea232e7e5565dd	0.8167946307614177
163	0x3fdceaa32c87eb4b	0.4518211302635577
164	0xbff24099367f57f6	-1.1407711151891795
165	0xbff9bd746fecf393	-1.6087536213010238
166	0x3fbe703467a2639c	0.11889960794577664
167	0xbff5248bf508f9bc	-1.3214225360567147
168	0x3ff5f8c6e4fd20b5	1.3732365555643302
169	0x3fd65f6f9e1e5d16	0.34957495156545926
170	0xbfe5ab3ec1b3d8b0	-0.6771539481403774
171	0xbfd53fddd3bd86ef	-0.3320231025482902
172	0x3fe905915d5fd4db	0.781929666873704
173	0xbfe5065e9a0d2c32	-0.6570275315110676
174	0xc0073de05053b7bd	-2.9052130008267043
175	0x3fefdfd504b33132	0.9960732547565725
176	0xbfb76171147e45c8	-0.09133059263537924
177	0xbfdba7590682dde0	-0.43208909641131577
178	0xbfe6759043597178	-0.7018510165612915
179	0x3fae006e20615282	0.05859703202501
180	0x3feffc6efa43a4b5	0.9995646369908601
181	0x3fc1aa9b3c62dfb7	0.13801899384065816
182	0x3fecc1fbdf914b30	0.8986796728662281
183	0xbfc40f20bec67679	-0.15671166720578691
184	0x3fed29ec1bad2215	0.9113674679329643
185	0xbfe76c42bb26a7ec	-0.7319654135983433
186	0x3fef3b3702360a6f	0.9759783785996897
187	0xc0029ecd8bc53e20	-2.327540485340947
188	0x3fc92def77bc1de8	0.19671433779170333
189	0x3fe030879decf4d3	0.5059240421757302
190	0x3ff73a16efd0f43b	1.4516820304700235
191	0x3f955f5f1ed8d92f	0.02087162614608323
192	0xbff53fade17760f7	-1.3280466849592452
193	0xbfd74ab88cff86f3	-0.3639356018958175
194	0xbfc03cadd3f32d47	-0.12685177659146005
195	0xbfb0b7bb3d5f4aa9	-0.065303518756347
196	0x3fda3ee99bfbb08f	0.41008987648707146
197	0x3fb107d4268b4aa5	0.0665257066823793
198	0x3ff33aa7f41e7abc	1.2018203292752068
199	0xbfebed83e475a6ee	-0.8727435552693501
200	0x3fe16664852267a3	0.5437491035729533
201	0xbff0d427de683a84	-1.0517958343295115
202	0x3fd2660889b1356b	0.2874776215220069
203	0xbff4bb980652437e	-1.295799278919929
204	0xbfe367e2694be7ea	-0.6064312035152828
205	0x3f9cbcc3cfbf8d2e	0.028063830904909874
206	0x3ff1b9989815408a	1.107811540674478
207	0x3ff92e018ebeee11	1.5737319541939352
208	0x3ff50ef4d38593ea	1.3161514532632688
209	0xbfa03757eead4137	-0.03167223728690021
210	0xbfe851337c28b639	-0.7599122452717842
211	0x3fc2f9569dc33cb1	0.14823420241598265
212	0x3fe78562ba086c5a	0.7350324281172889
213	0x3ff5d07b3d8cb0b8	1.3633987812309396
214	0x3fc2f71ff221cdb1	0.14816665003637078
215	0xbfdf78217b46d29d	-0.49170720137343854
216	0x3fe296bfab88069a	0.5809019422742552
217	0x3fd7f19f2e0ee062	0.37412242410528596
218	0xbfd76c644b7c3da2	-0.3659907090340885
219	0x3fc026481680fb3d	0.12616826151676178
220	0x3fe67203ce3abed0	0.7014178302688041
221	0x3fc19471602407b4	0.13734261698124117
222	0xbfea3700564579a8	-0.8192140278804816
223	0x3fbced93d620bded	0.1130001447461308
224	0xbfe0d6e985ae1c32	-0.5262343989314842
225	0x3fe9ed49e2d9bbb6	0.8102158957170704
226	0xbfce98a981ff8774	-0.2390338787800449
227	0xbf18e312ab933e00	-9.49363847155757e-05
228	0x3fd543b2bf30ed6c	0.3322569720364388
229	0x3fdbbdc95bb836b5	0.43345865208616924
230	0x3fd16cde7914f123	0.2722698385657784
231	0xbfe5fb1db1cedf26	-0.6869038079084688
232	0xbfe7b5fdf8ddda8e	-0.7409658299137207
233	0xbfedc6f19385fd82	-0.9305351144138714
234	0xbfe96107d022add5	-0.7930945458551216
235	0xbfeb299af503cce0	-0.8488287721105756
236	0x3fe87850853fd5d5	0.7646868326689239
237	0xbfd464db2dd74cb8	-0.3186557719865948
238	0x3fea0112f0d01b7d	0.8126311019303639
239	0x3fa94ab74f9086bb	0.04939816328284282
240	0x3fdaa4af9c40dfb0	0.41630163439867385
241	0x3f701c0c6bc68df0	0.003932999152684399
242	0xbfecc519cdfe4ae3	-0.8990601561839323
243	0xbff880c4daf7845e	-1.531437735881148
244	0x3febc911a0c14839	0.8682945384737258
245	0x3fdd4934c2434d53	0.4575931450937862
246	0x3fe35c9740c569f6	0.6050525918065535
247	0x3fc20026483e9f8c	0.1406295635945266
248	0x3ffdaf3487dad041	1.8552747065377988
249	0xbff4657e9432931d	-1.2747789181677895
250	0x3fee96a01ec9ca92	0.9558868981678919
251	0xbfd0739650804db4	-0.2570548807281867
252	0xbffee5f445b17b38	-1.931141159285927
253	0xbfe4d09801e7d1eb	-0.6504631077974045
254	0x3fdc672497187f63	0.4437953448814282
255	0x3ffab91f8d1bea2d	1.6701961052009537
