saved_params_35000.npy (npy, 836528 bytes, 1 tensors)

array f8 [104550]
0	0xbfc2bf6117bde1da	-0.1464654317785648
1	0x3f9d20dcba02b1d9	0.028445671895200284
2	0xbfc0ad0ddbeb0b54	-0.13028119314375408
3	0x3fe379eef499c578	0.6086344506604027
4	0xbfe4d81cca56b32c	-0.6513809158255746
5	0xbff9a4829edc21b0	-1.6026636319603362
6	0xbfeb51672c3b33e6	-0.853686891926938
7	0xbfcadd2e42bac3cd	-0.20987489946631258
8	0x3fd03600c72ce946	0.25329608393407843
9	0xbfec19a0a7132c2a	-0.8781283629590508
10	0xbfdf3546cd22950a	-0.48762674362872416
11	0xbff2aa984b93926a	-1.1666491462903203
12	0xbff0bb0792b0cac3	-1.0456615190602612
13	0x3fe733ec9ea0a0a3	0.7250884149734883
14	0x3fb6b558ddc02495	0.08870463765937793
15	0xbff4e1fe030a4fbf	-1.3051738852272903
16	0xbfdbdd7f56d5390e	-0.4353941295602376
17	0x3ff3e5d32cd61f30	1.2436095954344175
18	0x3fd7d512317eff46	0.37237982591249297
19	0x3ff6a26db24b208a	1.4146553959454047
20	0xbfdf42a3e9bfed9d	-0.4884424002372841
21	0x3fc0e7b37ec402d1	0.13207095803956873
22	0x3fe7ee63d672ce62	0.747850340695049
23	0x3f96c0b976f80db6	0.0222195605147257
24	0xbfec1c7c992964a0	-0.8784773818434992
25	0xbff7971cac0849c2	-1.4743925781263987
26	0x3fc8f69b87313c28	0.19502586461246207
27	0xbfd478151a3b217c	-0.31982924996966466
28	0xbffc6ed8aee60185	-1.7770621139498826
29	0x3fe39274ca4a0f0c	0.6116279555285202
30	0xbfa4ac24451b3e5d	-0.04037583678802712
31	0x3fe64252e34532fb	0.6955961645959116
32	0xbfea9c4548c650e7	-0.8315760060673058
33	0x3fc3e97a580f1221	0.15556268024205713
34	0xbfeb5d4d494a2299	-0.8551393920361817
35	0xbff3e0d17b01f69e	-1.242387276171406
36	0xbfdf8d9c71993422	-0.4930182561263924
37	0xbf7a077064c095fb	-0.006354750668867033
38	0x3fe31721ebb20023	0.5965737918304551
39	0xbfbf1ef44d99f366	-0.12156607527317717
40	0x3ff050aab930df13	1.0196940645236665
41	0xbfdde0e6fbe4e44f	-0.4668519458678632
42	0x3ff5cb8a54d06d1b	1.3621924698880494
43	0xbfb7f02712fc7c9a	-0.09350818837673316
44	0xbfcc3dbf81382ccb	-0.22063440141241694
45	0x3fdf7e8593c60b15	0.49209727698341627
46	0x3fc85e75572a726e	0.19038264042037006
47	0xbfd0b7ff11d62519	-0.2612302469429593
48	0xbfd8b1382d6b14ac	-0.38581661639575304
49	0x3fbaf460186a4677	0.10529137226174066
50	0xbfdcdd9d6d538566	-0.4510263030661775
51	0x3fc616c89b893d6a	0.1725703010037976
52	0x3fed5c805b956f08	0.917541674494232
53	0x3fef115ad567880f	0.9708685081534457
54	0xbff6bd7111f0aac9	-1.4212504101548566
55	0x3fcda0bc7a24df85	0.23146778072418442
56	0x3fade1b6de24dd71	0.05836268865317152
57	0xbfbbf5df9b339f7b	-0.109220481291798
58	0xbfea269e98340082	-0.817214295646423
59	0x3fd6a61e9aaf116e	0.3538891325554435
60	0xbfc6595eb85de1bc	-0.1746023559787896
61	0xbfc077d948217559	-0.12865749380118066
62	0xbfb196a43f2c01fc	-0.06870485822947353
63	0x3fe0471bb83d8ecd	0.508680209965371
64	0xbff4a161d11506d5	-1.2893999259253424
65	0xbfe4ab71adb169d8	-0.6459282295648405
66	0x3fe9ceb2e8c1b2ce	0.8064817949321765
67	0xbffcdbe55479fd63	-1.8036855029930272
68	0x3fcea0360c2f6a06	0.23926425547581703
69	0xbfc048f5a3f2cc37	-0.12722654824537624
70	0x3fd09149b981f7e0	0.2588676749800225
71	0x3fb265539e412d56	0.07185862172734878
72	0x3ff9d1f7b7490812	1.6137616309720255
73	0xbfd1e5b8618a9138	-0.2796460106421992
74	0xbff4507d8485acf7	-1.2696509529731068
75	0x3fceac66f1e63469	0.23963629542814438
76	0x3fe3946cbc6d8712	0.6118682556372923
77	0xbfe8960192da1dc8	-0.7683112972453552
78	0xbfe379a5d21629e0	-0.6085995772603461
79	0xbfe149fc05416970	-0.5402813055655269
80	0x3ff136c65e12a041	1.0758727717129803
81	0xbfc0f4387dcf7853	-0.13245302336776152
82	0xbff785678501076b	-1.4700694270581731
83	0xbffa8d119a2494c4	-1.6594406148154102
84	0x3fd97fbfcf3817a3	0.39842219578019406
85	0x3fe7b2953d95455d	0.7405496790690155
86	0x3ff94182c7e18219	1.5784938629004783
87	0xbfe61dbf7ff23035	-0.6911313532778026
88	0xbfa9164a2fe917e1	-0.048998182629062866
89	0x3fd77013a528ba31	0.36621562126939283
90	0xbfeebca462af2af0	-0.9605276038576829
91	0x3febda859c239db6	0.8704250382988252
92	0xbfb01c558001d1e3	-0.06293234229253346
93	0xbfe929f1f7c86348	-0.7863702620989921
94	0xbfdb799443f8e45a	-0.42929560316003335
95	0x3fe94c61fab8241b	0.7905740639554354
96	0x3fce9b8f81032c18	0.2391223316138571
97	0xbfe276f50791c943	-0.5770211360780099
98	0xbfd3a86e630e8a0a	-0.3071552245475294
99	0xbfc2f529de12f9bd	-0.14810679763281867
100	0xbfe5b21b94a94c89	-0.6779916671315657
101	0x3fd318ce15728643	0.29838897795170655
102	0xbffbcb0b34ef8728	-1.7370712344931665
103	0xbfdb4e86f708cca2	-0.4266679203457874
104	0xbfac2f061fbe9a80	-0.0550462640524545
105	0xc0009899be81f87a	-2.0745119937337764
106	0xbff2b351f994acd3	-1.1687793492554206
107	0x3ffa392504ccfca5	1.63895131945882
108	0xbf769813ac481d45	-0.005516125533638065
109	0xbfc4d976f3bbf67a	-0.16288649464688715
110	0xbfc038cf2119c409	-0.12673367611162714
111	0x3ff1396caf7cacd3	1.0765196661912355
112	0xbff3191702adfaec	-1.1936254601166025
113	0xc000eb1d35632679	-2.1148018046267762
114	0x3fd7457186a4566d	0.3636134924757702
115	0x3fd85caf5fd4b6d8	0.38065704687583723
116	0xbfb7752cb3d27296	-0.09163169279276881
117	0xbff6614dd723c170	-1.3987558750050901
118	0xbfec216804c9e4df	-0.8790779202965061
119	0x3fcc9ae76524c8b1	0.22347729147583587
120	0xbfb2bb47c5c10623	-0.07317017152765763
121	0x3fd6bf228fdaa0ee	0.35541595504993395
122	0x3fe5c4388bc69919	0.680202744483526
123	0xbfe230cdcb8ce198	-0.5684575057594428
124	0x3fc1003fa680dbe6	0.1328200877194085
125	0xbfef1992a334d7b7	-0.9718716800332378
126	0xbfe190398ec573b1	-0.5488555706502806
127	0xbfce9024274c9fd6	-0.23877384108459293
128	0xbfee88eba7573513	-0.9542139309284344
129	0xbfca86cb6274c55a	-0.20723860080174
130	0x3fd4245a535b2dee	0.3147188009286016
131	0xbffde261543ad57c	-1.8677686014392227
132	0xbffd6968c75a58cd	-1.8382346904013958
133	0xbfc5d0a9f31c494d	-0.17043041582707943
134	0xbff5a62b615abb2d	-1.3530687144190765
135	0xbffafb5b14c1c8a1	-1.686366158563523
136	0x3fd7ad337dbb506d	0.36994635847555096
137	0xbfd26f51e37d6670	-0.28804442611508474
138	0xbff04405b25dcfa0	-1.0166069953383854
139	0xbfdfcd01389f55d8	-0.4968874981835518
140	0x3feb6c960a6f9907	0.8570051387621626
141	0x3fe4d353e86b937b	0.6507968463380246
142	0xbfd711673b7552dd	-0.36043721014475044
143	0x3fdf5a2065ec80ca	0.4898758883810045
144	0xbff51e4dbe2e6e41	-1.3198983601531753
145	0xbfe1493bbfe2cf0d	-0.5401896236203086
146	0xbfdfb81de1d2cf39	-0.4956125932032936
147	0xbfa97b0d1a2225cd	-0.049766930999861715
148	0x3fd851ee1f27f1be	0.3800006202943925
149	0xbfe545cf64554d4d	-0.6647717437394164
150	0x3ff1080301ca8ee8	1.0644559926958497
151	0x3fb1ce7296163680	0.06955639042117845
152	0xbfd428643e55b6ce	-0.3149653061617358
153	0xbfc07b4b7e6a7324	-0.1287626616730445
154	0xbfe163befd8ace3b	-0.5434260322567249
155	0x4009bbaf97ef9bd9	3.2166435117719456
156	0xbff254651871ec21	-1.145604224670713
157	0x3fc57e47843cf231	0.16791624028145827
158	0x3fe49650c0eed9ea	0.6433490532133963
159	0x3fb82aebb9aeb16b	0.09440491946469869
160	0x3fd09faa553b8898	0.25974520038119797
161	0x3fc2b29b8b4f6c9e	0.14607567121752124
162	0x3fea8e0b66635915	0.8298394202963971
163	0x3fdb2db9a3a3ff55	0.4246658418705825
164	0xbff34540a3025371	-1.2044073455374156
165	0xbff8a7d93d96bc20	-1.5409786611378493
166	0x3fc4cc2d960a7571	0.16248102022374725
167	0xbff3a166dfdf6c4e	-1.2269047493962435
168	0x3ff670651cb28d6f	1.4024401780123659
169	0x3fd343f51b20027c	0.30102279328279
170	0xbfe3fb001da0ee09	-0.6243897036251279
171	0xbfd8cda1add475c6	-0.38755075431421593
172	0x3fe6c7229fbd09ec	0.7118085021868956
173	0xbfe210533cded776	-0.5644928158642262
174	0xc007330c848b5502	-2.8999262194653292
175	0x3feec4b56ff67fb9	0.961512297322762
176	0xbfd082cd88123b77	-0.25798357284741463
177	0xbfd9eb7ff898a928	-0.40499877240167104
178	0xbfe2ba0ce9f920eb	-0.5852112359798672
179	0x3fb1b63cea2df541	0.06918698041223072
180	0x3fef1292feff37db	0.9710173588189223
181	0x3fb9a65306561e5e	0.10019415764519965
182	0x3feaac34e7d1beea	0.8335213210793573
183	0xbfcb78b41342c408	-0.21462107601612979
184	0x3fee5279ab28c9fd	0.9475677817302423
185	0xbfe71e98b8056950	-0.7224849313891273
186	0x3ff24a20acfd518b	1.143097568264326
187	0xc0036d524cee9257	-2.4283796320253646
188	0x3fd072133c93cb7b	0.2569625941825319
189	0x3fdc4298b0edb758	0.441564724714103
190	0x3ff78c98699824b7	1.4718250393655532
191	0xbf9c65362b347ce8	-0.027729841601396382
192	0xbff40ae29e7dbb1b	-1.252657527071
193	0xbfd9488098d3ed48	-0.39505019116014184
194	0xbfc3f416cc029d9e	-0.15588650666653064
195	0xbfa628b158b171d6	-0.04327921111755344
196	0x3fd927d2400f401a	0.3930554986554867
197	0x3fb8593db08588fd	0.09511170920953656
198	0x3ff4d6752d153ec2	1.3023578415922406
199	0xbfe9f2d196a8403e	-0.8108909552120236
200	0x3fd92b479488994d	0.3932665777705509
201	0xbff08226bd92c521	-1.031775227089675
202	0x3fd427b967b896ef	0.31492457512864197
203	0xbff54938dd0c8212	-1.3303764948578913
204	0xbfe260d158ec917a	-0.5743185746000983
205	0x3fb8865d64cd1d5c	0.0958002444359542
206	0x3ff2f5fb361903de	1.1850540269081118
207	0x3ff8f5e48d01ef85	1.5600324161632397
208	0x3ff7aab893163bc4	1.479179930265432
209	0x3f7de7973224f3d1	0.007300940140621174
210	0xbfe69a8bb7ff50fd	-0.7063654512117236
211	0x3fc8cbd69c849491	0.19372065203166192
212	0x3fe7b4cc162309ae	0.7408199722634004
213	0x3ff40c2c8327afec	1.2529721377604757
214	0x3fd37982bb9e9352	0.30429142305574886
215	0xbfe1c393dac609a8	-0.5551242134973124
216	0x3fe5a8521f6b6a34	0.6767969716705182
217	0x3fd34d53e269a5b1	0.3015947066365597
218	0xbfd75430df05bcd0	-0.3645136049226041
219	0xbfc2c5113770f518	-0.14663901526538647
220	0x3fe46c968705d80b	0.6382553708233457
221	0x3fae6bf5251a6c10	0.05941740110321103
222	0xbfeeb146bcd13928	-0.9591401756131619
223	0x3fd420a450e038a1	0.3144923009684906
224	0xbfe130ebb9f2e5b7	-0.537221778088841
225	0x3fee977bc69f6340	0.9559916381213966
226	0xbfc9e9bc5ed20a86	-0.2024455512037841
227	0xbfa2adfa0f293b0b	-0.036483587599482524
228	0x3fd0cfbd22ecc6b4	0.26267937098155447
229	0x3fe0d66a74b2c3fc	0.5261738089812975
230	0x3fd04498cd4f5f08	0.25418682145890203
231	0xbfe431ae408cbeae	-0.6310645352113704
232	0xbfe710662211f6a6	-0.7207518258507732
233	0xbfe8e37331bea247	-0.7777648898673498
234	0xbfe97c55a5dd678f	-0.7964275588558268
235	0xbfea7163592c9d33	-0.8263413182911904
236	0x3feb691b18cd04b7	0.8565803036109604
237	0xbfd8211e148ac9b3	-0.37702133184498193
238	0x3fec7aa0090d176e	0.8899688889293722
239	0x3fc3296c423e7751	0.14970162615366658
240	0x3fd9b618db4d470d	0.40173932472417634
241	0x3fa8394f87987081	0.04731224565713977
242	0xbfece095e859dce0	-0.9024152315240848
243	0xbff8447814ed010c	-1.5167160813726381
244	0x3fe9ae5df92a9b3e	0.8025350443393575
245	0x3fdb55203b3a6343	0.4270706728362265
246	0x3fded32365fe88ec	0.481636857608591
247	0x3fcb0108dc7da0e7	0.21096907392644157
248	0x3ffd516c9ea7dbfa	1.832378978489713
249	0xbff44d959c338c04	-1.2689415074935377
250	0x3ff2d26502d900be	1.1763658629643454
251	0xbfc5d3f0f064a4f7	-0.17053043115564723
252	0xbffe4b55aa166b95	-1.8933922428175027
253	0xbfe4abcd8e2e10c7	-0.6459720398857137
254	0x3fe18a68e1932d0d	0.5481457143554579
255	0x3ffc907d2e97394e	1.785275632853501
