saved_params_40000.npy (npy, 836528 bytes, 1 tensors)

array f8 [104550]
0	0x3f94a735a412ecc8	0.02016910375526207
1	0x3fa46dadeb2f32e0	0.03989928718474345
2	0xbfc67dee893ab4eb	-0.17571813297892133
3	0x3fe2c35d34a2b111	0.5863481548344983
4	0xbfe10b37b923c560	-0.532619344330822
5	0xbffa0ba401b54c84	-1.627841955826427
6	0xbfea3905b9557986	-0.8194607372095539
7	0xbfceee65deea9bda	-0.24165032753555132
8	0x3fd1e3594675dd32	0.27950126534365716
9	0xbfeaaa1ac56b538b	-0.8332647186131096
10	0xbfd8d07638a4960b	-0.3877234986451589
11	0xbff280f9de8d11cd	-1.1564882939720633
12	0xbff0d3ab059862f6	-1.0516767710270734
13	0x3fe6d3fb5996cfa7	0.7133766889369227
14	0x3fba1807e49ca35e	0.10192918139786175
15	0xbff4e1380a31dd82	-1.3049850843652568
16	0xbfdd375fe6684b9d	-0.45650479794238114
17	0x3ff4102c9d91f8b6	1.253948798664664
18	0x3fd7d2478d515055	0.3722094421439171
19	0x3ff754df8459d01b	1.4582209749178279
20	0xbfdc4e1ea78bfe60	-0.44226805078503695
21	0x3fca58873a736a14	0.20582666734738153
22	0x3fe74a2b89882bcf	0.7278039632959635
23	0x3fa184fa862192aa	0.03421767127364224
24	0xbfece97ba0553d79	-0.9035013324263864
25	0xbff7734e03e2c3dd	-1.465650572947417
26	0x3fc819863bc5fb3c	0.1882789413320668
27	0xbfcf0c84ac9cb2c8	-0.24256952694249478
28	0xbffc6c7f69e8d3e7	-1.7764886986817545
29	0x3fe3964a3ca68ab9	0.6120959457951677
30	0xbfabfb5c9d28ccf9	-0.05465211313676294
31	0x3fe71bd98256723e	0.7221496148736788
32	0xbfea6df30fa8a476	-0.8259215646586557
33	0x3fc26d2e2d4118b8	0.1439569207161122
34	0xbfeabad8ea2167a6	-0.8353085110531893
35	0xbff3dad7444759e1	-1.2409279505860626
36	0xbfdec029f34f6741	-0.48047875176199645
37	0x3f95e0533e8068e5	0.02136354512195106
38	0x3fe3053d4a05618d	0.5943895765040438
39	0xbfbc8bfcac3ac910	-0.11151103215050662
40	0x3ff0b8a9ee4f886a	1.0450839337359192
41	0xbfdbf1bfeba01626	-0.4366302300480548
42	0x3ff54a56fc53b982	1.33064936223272
43	0xbfbcc604a61bec9c	-0.11239651732823791
44	0xbfcde5819068cc52	-0.2335664706348291
45	0x3fdc894bcb962d41	0.4458798874045052
46	0x3fcb95164a1d1dd4	0.215487276256893
47	0xbfd25cf8135566d9	-0.28692438018843586
48	0xbfd76f9d26135f6a	-0.3661873695214043
49	0x3fbc8cf243cefbb8	0.11152567058068896
50	0xbfdb75050d63014b	-0.42901731784151725
51	0x3fc49d78e9fb7a30	0.16105567383688557
52	0x3fee871ebcd4a671	0.9539941490267677
53	0x3fee86e83a787fe8	0.953968157005872
54	0xbff770cde241886d	-1.4650400961041001
55	0x3fc56513a7246090	0.16714711819873118
56	0x3fc09c683fc2f207	0.12977316964487803
57	0xbfbc121fe77501d3	-0.10965155983740908
58	0xbfe968d90e2a9119	-0.7940488125500763
59	0x3fd6a6b88f8398c7	0.3539258386139292
60	0xbfc26481d4234b98	-0.14369223459524672
61	0xbfb8d044495e7f56	-0.0969278983234266
62	0xbf9ea8f0f74d46e0	-0.02994133481417449
63	0x3fe129b54fb11b5e	0.5363413387757239
64	0xbff423bb722334c2	-1.258723684167578
65	0xbfe405802cb9a724	-0.6256714700259391
66	0x3fea8b7f891d357d	0.8295285871515002
67	0xbffd0ae74b63f808	-1.8151619858686008
68	0x3fcbff0ab8dcaba4	0.21872076059784462
69	0xbfc893996bb13f00	-0.19200437315384278
70	0x3fd2ca7528083064	0.29360703381894937
71	0x3fb2a0f7f80d38f0	0.07276868635128486
72	0x3ffa4e2f6458ba8b	1.6440881652630732
73	0xbfd0b6672edb28ba	-0.261132999189282
74	0xbff39ab46b39fa9f	-1.2252697170767204
75	0x3fcc88587fa52c02	0.2229109404819099
76	0x3fe64852f61485cf	0.6963286215070016
77	0xbfe92f0407127c9d	-0.7869892252091578
78	0xbfe33b5ed96ce294	-0.6009973761166116
79	0xbfe0924924ad3cc6	-0.5178571430532422
80	0x3ff14d3641936250	1.0813505708266753
81	0xbfbb076eaaf67af3	-0.10558215783974471
82	0xbff77d781249ae53	-1.4681320871703931
83	0xbffb09750a7d3208	-1.6898088845947559
84	0x3fd8fb2569b27b42	0.3903287441443589
85	0x3fe77ff23efbf6c3	0.7343684415970632
86	0x3ff967e1170904ce	1.5878611469091086
87	0xbfe68ada93b6daa4	-0.7044499287647636
88	0xbfab72263ed16b48	-0.05360526577779595
89	0x3fdb65eb9c028aa9	0.42809572444290694
90	0xbfed39eda3105114	-0.9133213219488732
91	0x3fe9df96945ff6b2	0.80854348163094
92	0xbf8e0c42d3c3d4dc	-0.014671823585084835
93	0xbfe883a01e9020e8	-0.7660675618108401
94	0xbfd8d54225e17b39	-0.3880162591867023
95	0x3fe8a6bc0c26b748	0.7703533398941795
96	0x3fd5c43293d05476	0.3400999492162734
97	0xbfe323df0f522ba6	-0.5981288241613256
98	0xbfd0b95d38b51db2	-0.2613137296470668
99	0xbfc2cd9a4e4d6d4e	-0.14689949820863507
100	0xbfe73fa053e24d28	-0.7265168798789192
101	0x3fd3b781e6154b8f	0.30807540387211757
102	0xbffc255b567105ea	-1.7591203095074612
103	0xbfda857344a5399b	-0.4143951578488669
104	0xbfa1599b77da5e44	-0.03388677442597701
105	0xc000b96d2a8c4c78	-2.0905402492585914
106	0xbff2c06a3c4b6431	-1.1719763140920458
107	0x3ffa39ebcd2910f5	1.639140893371459
108	0xbf938017d506636d	-0.019043323876391783
109	0xbfc8728d96e180a9	-0.19099588267545656
110	0xbfbd1c09497e0fe1	-0.11370904964684271
111	0x3ff14f5c5d560e54	1.0818751951163863
112	0xbff29f9ce3bc7a0b	-1.1639679809519545
113	0xc0010192915c8234	-2.125767837176932
114	0x3fd2de7de9cd5ad9	0.29482982475512426
115	0x3fd703146ac01eed	0.35956297325945635
116	0xbfb15b7a0867b293	-0.06780207352830762
117	0xbff6280c29b7de8c	-1.38477722450435
118	0xbfebaf7f5c34447c	-0.8651730347502418
119	0x3fcbb6e00687f89b	0.21651840514090712
120	0xbfb402388b3c3f78	-0.07815888785648706
121	0x3fd6f25abec2268c	0.358542143142224
122	0x3fe4ef166747a2ac	0.6541854874786472
123	0xbfe1071622baa0b3	-0.532115047292811
124	0x3fc1f2969fb71701	0.1402157096728658
125	0xbfefc4e955257dbe	-0.9927870429054833
126	0xbfe2aac6393bc8bf	-0.5833464734880848
127	0xbfd233cb06a7f598	-0.2844111981392756
128	0xbfef013b470a4f64	-0.9689003360276556
129	0xbfca7e6c5fb110c2	-0.20698313400692397
130	0x3fd3d83dca56ecef	0.3100733257267185
131	0xbffe2a2399edf4e2	-1.8852878582832138
132	0xbffd3443b358337b	-1.8252598767896575
133	0xbfbe762fb1b1b4e7	-0.11899087990032663
134	0xbff5274ca165ccf2	-1.3220945648761782
135	0xbffa9b26e433e63b	-1.6628788866204463
136	0x3fd51e84544abb67	0.32998760444291125
137	0xbfd15a4a7b983c06	-0.27113592214385596
138	0xbff051588d0e3f80	-1.0198598394381122
139	0xbfddbc9b6bc6c417	-0.46463666462938263
140	0x3fec9654dc170892	0.8933510111458125
141	0x3fe465521ce9ff8d	0.6373682560660981
142	0xbfd63487456fbdda	-0.34695607930094996
143	0x3fe036e5ebab5037	0.5067014315523072
144	0xbff54ef2ad8c2968	-1.3317744044494138
145	0xbfe05439755a2ffc	-0.5102813045537
146	0xbfdffe117716ff6b	-0.49988209371439635
147	0xbfb414536e4956d8	-0.0784351486448388
148	0x3fd8eae4f42d34e3	0.389336813405704
149	0xbfe5daf0769de3b9	-0.682975989983894
150	0x3ff170e4dc5d492f	1.0900620086654944
151	0x3fb43147a4d2dcdd	0.07887695096984566
152	0xbfd5e9712abb913f	-0.3423731725036027
153	0xbfb8cf69025c868d	-0.09691482837345174
154	0xbfdc22fae02adc41	-0.4396350087294572
155	0x400a00e63612d1c4	3.2504390930646156
156	0xbff236346e000739	-1.1382335945967965
157	0x3fc4e9b350758438	0.1633819716326188
158	0x3fe626ec61ee959a	0.6922513878568453
159	0x3fc6891bd6e9b160	0.1760592269305432
160	0x3fd36362a0bb0e35	0.3029409951816178
161	0x3fbf0019be3197c3	0.12109528439904609
162	0x3feaaea0cb94b079	0.8338169075191352
163	0x3fd805eb111ca583	0.3753612200840381
164	0xbff3d650541fecfa	-1.2398227010842775
165	0xbff88a9fc21801e1	-1.5338437635219793
166	0x3fc410a219fd4186	0.1567576052571093
167	0xbff355ef58f092a7	-1.2084802126129632
168	0x3ff6a7575eff677a	1.4158548079344357
169	0x3fd0bf81cb6f0db0	0.2616886603029469
170	0xbfe2fb893b7a1d21	-0.5932050859127324
171	0xbfd9db6023a87094	-0.40401462061141413
172	0x3fe65ea3bf161e1e	0.6990526897579377
173	0xbfdf8526bab4a9d2	-0.4925019095705042
174	0xc0075a4ffd8f647d	-2.919097882212155
175	0x3feed024d4f6c504	0.962908187813952
176	0xbfc7a09639a8374b	-0.1845882207421091
177	0xbfd814a642460890	-0.376260342331201
178	0xbfe276fcbbf9adc3	-0.5770248099701621
179	0x3faf960ff83517ff	0.061691760109667364
180	0x3fed4a968dd52d54	0.9153549928827638
181	0x3fb6584155d3c06e	0.08728416772260214
182	0x3feb050eb70d05c8	0.8443673682415289
183	0xbfc4a1bc38b98c92	-0.1611857678391045
184	0x3fee95c654ce8196	0.9557830482845471
185	0xbfe6e68ede05f056	-0.7156442963018985
186	0x3ff2ce7fc4dcc0a6	1.1754148187574542
187	0xc003900f42405d37	-2.445341603841054
188	0x3fd007661dd2f6f6	0.2504515925646581
189	0x3fdb391d78b91a54	0.4253610304771531
190	0x3ff76ee699d690cb	1.4645753869345295
191	0xbf5f3721209c16e7	-0.0019052337178790347
192	0xbff3d30c3972e07d	-1.239025329980023
193	0xbfdbb68c94c94fdf	-0.43301691560668404
194	0xbfc2b50a25193252	-0.14614989100882042
195	0xbfa87b1efba36611	-0.047814338891566284
196	0x3fd79328171d141f	0.3683567262381206
197	0x3fc1477a1e778d62	0.13499380576750314
198	0x3ff46b96bc259d73	1.2762667989244079
199	0xbfe9c75ede8c496a	-0.8055872294083148
200	0x3fd5555d9df1fdc8	0.33333530830711
201	0xbff0767762d29959	-1.0289224491367206
202	0x3fd4551c5b26c590	0.31769474889286986
203	0xbff5555e07da51f8	-1.3333416277647512
204	0xbfe3aed6ed700381	-0.6150927197887627
205	0x3faa6e2716a434e8	0.051621648324820246
206	0x3ff37a4cd84f9679	1.217358441318906
207	0x3ff91d32d43a993a	1.5696285524550846
208	0x3ff6be2aa20f96d9	1.4214273767951708
209	0xbf98c0bb6fc8ce98	-0.024172714898851838
210	0xbfe77a9012d8f9c9	-0.7337112777821001
211	0x3fc8716718119197	0.19096077609277692
212	0x3fe79c690b02fc09	0.7378430571624232
213	0x3ff4247d5626c245	1.2589085927285322
214	0x3fd6d3c92c1aa519	0.3566763811782763
215	0xbfe28b2c06938353	-0.5794887665216301
216	0x3fe5e4a95c2e96e0	0.6841627884320722
217	0x3fd337a854770909	0.3002720665791832
218	0xbfdaaa1c0fa59653	-0.4166326668549562
219	0xbfc97e73fa077bc8	-0.1991715403409826
220	0x3fe4f8f5db9d22a9	0.6553906716663579
221	0x3faa4768b59c4b89	0.051326057595495085
222	0xbff0167c7f59edc1	-1.0054898237857375
223	0x3fd6c31d4f16f8a7	0.35565884326559644
224	0xbfe108ff2eb292bd	-0.5323482429563097
225	0x3fefb6fad1fd2137	0.9910863972991483
226	0xbfbcc1648d6384be	-0.11232593967317236
227	0xbfa1232f14376f66	-0.033471556871261396
228	0x3fd1f753791b5c2e	0.28072058512538234
229	0x3fe2374301db8bf3	0.5692458187371571
230	0x3fd0c023c53f4d43	0.2617272783511064
231	0xbfe3beb6c5c8a762	-0.6170305121388362
232	0xbfe6bf2e52409d74	-0.710837517403816
233	0xbfe703d9361d790c	-0.7192197853981113
234	0xbfe8e483f1176548	-0.7778949459854312
235	0xbfeb0ea4bb12dcd9	-0.8455375341208323
236	0x3fec875be6f70524	0.8915233145745884
237	0xbfd81a2962ab6475	-0.37659678111737743
238	0x3fed58599a70adf6	0.9170349136742846
239	0x3fc5d072111a0fda	0.17042375407265703
240	0x3fdcdbdaafeb540a	0.450918838306564
241	0x3fa980e48184e9f2	0.04981149750752313
242	0xbfed0d46119e7aa8	-0.9078703254816292
243	0xbff7f1fd9ad0b2ba	-1.4965797469587145
244	0x3fe9f0e87f2b090a	0.8106577380897602
245	0x3fd95a654662bd01	0.3961423098907773
246	0x3fdb0a7de6ebfd46	0.4225153689476041
247	0x3fca56bc90971785	0.20577199039524544
248	0x3ffcba62d35988b5	1.7955044036721521
249	0xbff46035db974423	-1.2734888627785572
250	0x3ff3781cb6fecd73	1.2168242595915586
251	0xbfc27492f07742c9	-0.14418255559441764
252	0xbffe37efea78002c	-1.8886565360007905
253	0xbfe3f38ac15f2e4b	-0.6234792496483775
254	0x3fe2018b16ecb1fb	0.562688393377868
255	0x3ffd3b6f36adbbfe	1.8270103584179647
