saved_params_15000.npy (npy, 836528 bytes, 1 tensors)

array f8 [104550]
-0.7732243106182792 -0.005344313037304617 -0.05647270332113645 0.8669032058306106 -0.44099956187242867 -1.4254679446627079 -0.7395213911749378 -0.13219814478234349
0.41374282275011653 -0.825626126899061 -0.47665511607101413 -1.2615317346774644 -0.9442802676684376 0.8428683365178161 0.07835527420968831 -1.3152537989677455
-0.17750086496650475 1.1402674560323465 0.37443721485246184 1.3066384822168786 -0.7634603237192058 0.040019179630540073 0.7094099670475321 -0.027841786660231824
-0.779365557837093 -1.514767454238672 0.032174453736476046 -0.05707821648785194 -1.8228113801131565 0.5721100909492924 -0.15757444898391298 0.5648811436763959
-0.8557128317666635 0.5287308793074924 -0.9648831023032787 -1.105940480977947 -0.41743454894697035 -0.12862564590639455 0.6757465784357232 -0.1336619149547038
1.0358484934937948 -0.5222777805906951 1.6176826618115694 -0.1336483782059303 0.010383015281602008 0.5585944314737065 0.4970750018348361 -0.07412606479606457
-0.6846852144900359 0.11554612364066545 -0.4355910950277418 0.13166395185245858 0.8581389026219303 0.9675272077571476 -1.5124301304739627 0.4917899435782244
-0.3006372204372219 -0.14999605439043937 -0.71460957717665 0.38849270390903795 -0.24132411890867153 -0.14170728372111174 -0.1962301477745028 0.4562388499965882
-1.367548843276656 -0.6137792717041813 0.6622022830771399 -1.8017754291526518 0.4076947340536312 0.1510788670205484 0.23591968831216348 0.05939789347292476
1.5656159254696351 -0.21313377182482562 -1.3312318340019558 0.20046105172584902 0.6159061519548007 -0.47376453396417495 -0.6305609499830332 -0.5307254642006852
1.1063536887868008 -0.21402137862574197 -1.5205818678141927 -1.9599830530955884 0.3617732684571659 0.7340922870652916 1.7044387618723849 -0.615557198547247
0.0810418128362711 0.2969782095150468 -1.1154581150152703 1.4565489973110142 -0.23291945370129277 -0.7806079692319384 -0.5207950271642868 0.8304656609819857
-0.306608647071085 -0.4831268339968782 -0.4012080657453144 -0.09622965545111338 -0.59589662853721 0.3547574523678226 -1.615119691314551 -0.45682594302747737
-0.2827013461929208 -1.855783471714514 -0.8286104020950269 1.6752639223260213 0.1244999451761748 0.03200749642844095 -0.23567863546270432 1.1418357931425616
-1.4738381970542722 -1.9655985705049217 0.5499851196002642 0.4467917102938977 -0.09229086195755118 -1.351825476016286 -0.9824916963107643 0.5133350947912901
0.18630632651812307 0.4263325436833474 0.773678397590802 -0.5736158171585773 0.12080136076806824 -0.8789856025359893 -0.5838840577184039 -0.3116065215185034
-0.9428494293300476 -0.036887711033159416 0.35135378320755545 -1.6974148989306588 -1.844515985100409 -0.7328209502611948 -1.3694562305015112 -1.6389199395351277
0.4875989837374361 -0.3715453105414485 -0.9407273220227308 -0.38513816919333993 0.6474721802313902 0.6148701458286214 -0.35576398396316317 0.5258849560120786
-1.1463967250198224 -0.5281942359900526 -0.508075845306715 0.12358649280067832 0.4252476464677791 -0.5485165736891925 0.6989708546089491 0.06627961619693314
-0.31506705476695734 -0.16588748203833076 -0.7760873078088476 2.995710049412269 -1.139453049266147 0.09303238424256186 0.7709256900199251 -0.11417817589757413
0.369482291358666 0.21994635543510388 0.6777605309014789 0.5254533172731881 -1.1831242490268017 -1.5968379310668221 0.13722347612351318 -1.347829171089413
1.320923377223956 0.4546586398030413 -0.773633732632923 -0.2890011956274882 0.8100859064561734 -0.6902727759514019 -2.9607595120822063 1.0180320716369047
-0.036260777730386266 -0.5182227840027389 -0.7383861773418413 0.07638158844549293 0.9514374360966731 0.12390641382972757 0.9222296447082758 0.040731417381199474
0.8877340153410602 -0.7341186104660088 0.8283726217182202 -2.2842975245103165 0.1481953976851843 0.48052661954655457 1.4328283986653712 -0.0068446381276898345
-1.335718603667013 -0.3948191353203846 -0.08226797914437722 -0.052537430818286594 0.3141171837864977 0.05082025349962064 1.1709320194999315 -0.917384125694131
0.6464246650814072 -1.1055215822537832 0.300611605239431 -1.3042504121247243 -0.5909112498062375 0.07323647106795317 0.973324247738223 1.5597572315758785
1.0507238274046886 0.051310617540294944 -0.5758207556770657 0.10167792013933212 0.6752855865591723 1.3827131330087998 0.11707835455972015 -0.406508847448437
0.5220913863185426 0.44337435551412374 -0.2859057996758945 0.27648251495809834 0.8084633220373023 0.15474392991089575 -0.6950913819029141 -0.05768226446721675
-0.5216092624153256 0.78106192661446 -0.27793580628797443 0.14968905739277347 0.3390724697011781 0.3725806861939632 0.291501205802615 -0.7134295455229144
-0.7370191914282082 -1.0081611892940607 -0.763697153669505 -0.8065277733366242 0.7055410384234451 -0.2379807611720946 0.7713290322483186 -0.009024858263911329
0.28581276306612324 0.01097180118950962 -0.8392603169075671 -1.5330497174417297 0.8793373837624534 0.47827405633534054 0.6793390681204335 0.13434192652404858
1.9311950073611996 -1.2597198354325962 0.9507848226475482 -0.3085909927126709 -1.949678535178618 -0.6820883095671141 0.2055720278427822 1.4805072991043433
00000000: 267c d2e8 40be e8bf 5bdc 6f1b ebe3 75bf
00000010: 5611 c37b fde9 acbf 85e1 baca abbd eb3f
00000020: d7b6 f239 5639 dcbf a629 bd79 b7ce f6bf
00000030: b13d b9c3 28aa e7bf 084d 376a deeb c0bf
00000040: 88a7 2a2d c37a da3f ca25 b87b 876b eabf
00000050: efbf bf75 8481 debf cce4 74e6 3b2f f4bf
00000060: 309c 7c40 8b37 eebf b5b1 8504 c7f8 ea3f
00000070: 1521 335c 170f b43f 8019 4891 470b f5bf
00000080: 1c7c 052d 59b8 c6bf fba1 8516 893e f23f
00000090: e695 0c82 c7f6 d73f ad10 cdc0 fde7 f43f
000000a0: ab5c 4558 446e e8bf a7ab 73d7 647d a43f
000000b0: 6b9e fd87 7cb3 e63f 39ef abac 8e82 9cbf
000000c0: 6640 d109 90f0 e8bf 1e01 50cc 7c3c f8bf
000000d0: 5931 2185 2b79 a03f d037 4222 5b39 adbf
000000e0: 57cd 0544 3c2a fdbf 6cd7 4ad2 b94e e23f
000000f0: ae1a 8948 662b c4bf 48f3 c69e 8113 e23f
00000100: 6392 66e0 ff61 ebbf 235a 6005 5deb e03f
00000110: 1c61 1b87 52e0 eebf f5f6 51a5 eeb1 f1bf
00000120: eba7 fc65 3fb7 dabf bf23 4c1f ce76 c0bf
00000130: 957d d849 b79f e53f 78c0 b968 d51b c1bf
00000140: e0aa b2de d592 f03f 6010 62e4 7fb6 e0bf
00000150: 3897 fc36 07e2 f93f 9769 c7da 631b c1bf
00000160: 7cfa 8bb8 b043 853f 7508 dd6d 01e0 e13f
00000170: 728b 22ab 13d0 df3f da8c 1400 edf9 b2bf
00000180: 2c43 89f7 f0e8 e5bf e35a 3746 6e94 bd3f
00000190: b1ab e478 b9e0 dbbf db5b a247 5dda c03f
000001a0: f7f7 45b7 df75 eb3f 25d4 699e fbf5 ee3f
000001b0: 51ee bdef e932 f8bf e3e3 0a87 7c79 df3f
000001c0: d93e 6fe5 a33d d3bf 9b67 111a 1233 c3bf
000001d0: 293a 6ce7 14de e6bf 0f88 8180 10dd d83f
000001e0: f370 396f b5e3 cebf 20f5 97da 7623 c2bf
000001f0: 6122 97c9 111e c9bf 8999 f96e 0433 dd3f
00000200: d5e4 58e5 7ae1 f5bf 3bd4 5d6d 14a4 e3bf
00000210: 26e4 a4d7 c230 e53f ee26 ef78 12d4 fcbf
00000220: bcc0 60a7 ab17 da3f 9428 7c64 8d56 c33f
00000230: b841 e4c8 9d32 ce3f 0cc3 d593 6669 ae3f
00000240: 5bd2 df48 c30c f93f 8893 d4a9 f747 cbbf
00000250: 86eb 66c0 b94c f5bf 7b63 a42e b5a8 c93f
00000260: 69a2 81d1 80b5 e33f 3c5f d87a 2852 debf
00000270: 6dfa 4928 8e2d e4bf ffae fcf7 b3fb e0bf
00000280: 525f f2ec 9fb3 f13f 9bd3 eb72 0d65 cbbf
00000290: db70 12a7 4d54 f8bf 1328 9c30 175c ffbf
000002a0: abcb 2511 4b27 d73f e51e a61b af7d e73f
000002b0: 0e6d 4494 6145 fb3f 607d 9202 a5b2 e3bf
000002c0: c086 bdff 27bf b43f 0779 5fe4 b001 d33f
000002d0: 37c6 c09b ead8 f1bf f18e 4752 064e f73f
000002e0: 0de7 1ffe 4dd0 cdbf 0b24 5b90 bdfa e8bf
000002f0: a3e1 3255 5aaa e0bf ffcb cbb8 2c93 ea3f
00000300: d9d4 f5df 799f d3bf 118b f5cf 8ceb debf
00000310: 6e1f 5198 64ad d9bf 9760 11b7 81a2 b8bf
00000320: b4a5 6bce 9511 e3bf 21a7 fb99 58b4 d63f
00000330: 5225 d5be 87d7 f9bf aa1c 51e1 a23c ddbf
00000340: dfc2 1b63 c717 d2bf f389 7702 4ab1 fdbf
00000350: 20f4 43f6 f983 eabf 71f1 e88a e1cd fa3f
00000360: c0ad e278 3adf bf3f a523 c65c 4963 a03f
00000370: f1cf d6af b72a cebf 3f31 cf9b f544 f23f
00000380: 6819 7f5c d794 f7bf b920 967c 1773 ffbf
00000390: 7708 bf64 7a99 e13f 4184 f541 3c98 dc3f
000003a0: 16cc d3b9 5fa0 b7bf b93b 16c0 13a1 f5bf
000003b0: a9e1 076d 9270 efbf 9990 80b8 3d6d e03f
000003c0: 4874 b7bd e2d8 c73f 3cca 154b 0849 db3f
000003d0: 15c6 e832 f9c1 e83f cf42 e58e 0f5b e2bf
000003e0: 90a7 cf85 d6ec be3f 7180 116a a620 ecbf
000003f0: 62cd 919e 2daf e2bf 511b c97a 5cf1 d3bf
00000400: 4ecb 0091 d22b eebf e9ff 0531 f2e2 a2bf
00000410: e3f2 0c94 947c d63f bb67 6a86 9c28 fbbf
00000420: a549 8f31 2383 fdbf 5341 e6eb 4473 e7bf
00000430: 3aeb b4ef 4ae9 f5bf fd0c 511d 0439 fabf
00000440: 97c4 2d5e d234 df3f eb7d 70fb 65c7 d7bf
00000450: 3e52 512f 701a eebf 031c 4890 1aa6 d8bf
00000460: 873c e593 17b8 e43f 9cdc f327 04ad e33f
00000470: 63da 0d4d d6c4 d6bf 06f8 f0af 0cd4 e03f
00000480: ed39 a317 a457 f2bf 596a 3099 f7e6 e0bf
00000490: 4f5b 6f46 2842 e0bf 9666 ce48 5da3 bf3f
000004a0: d9ec 91e7 4137 db3f c9e3 29a1 728d e1bf
000004b0: 29e2 2c20 f85d e63f f90e f56f b3f7 b03f
000004c0: 135a 1102 0f2a d4bf 42d0 150f cd3b c5bf
000004d0: 6326 bc0c b5d5 e8bf a431 94d4 36f7 0740
000004e0: 2bcf de1e 333b f2bf e66b ca67 f8d0 b73f
000004f0: 9a04 495a 6cab e83f dda2 65eb c73a bdbf
00000500: 158b 750d 99a5 d73f c4ec bbc1 3327 cc3f
00000510: f4b9 57da 36b0 e53f f26a a879 83d0 e03f
00000520: 76cb 4ab1 13ee f2bf de1b 2fee a58c f9bf
00000530: 91d2 18f3 8990 c13f f5c7 2652 b590 f5bf
00000540: 212e 1b8d 8022 f53f e510 338d 2019 dd3f
00000550: bcb4 9787 9bc1 e8bf bf65 eede fe7e d2bf
00000560: c2c0 6547 39ec e93f 17f9 c0ee b616 e6bf
00000570: 42b6 ddae a2af 07c0 aa5a 5fff db49 f03f
00000580: 7f85 f5cc c590 a2bf c8ae aaf2 4795 e0bf
00000590: a30d 700c dca0 e7bf 09d2 6368 be8d b33f
000005a0: aa35 07ec 2c72 ee3f 79cf 29ab 54b8 bf3f
000005b0: 508f 6dbe e782 ed3f 43da 2493 bfda a43f
000005c0: c2f8 6d2a 5168 ec3f 5fc4 ea4f e67d e7bf
000005d0: 23cf e54c 0782 ea3f 34d8 d0c7 3d46 02c0
000005e0: d4df 3c19 11f8 c23f 2dd5 f3b8 f2c0 de3f
000005f0: dec3 9078 ddec f63f d405 958e 1f09 7cbf
00000600: a789 7678 1a5f f5bf a64e 827a b744 d9bf
00000610: 50e0 eea7 830f b5bf d75d 5ca6 2fe6 aabf
00000620: 5360 def5 7e1a d43f b5b6 82bd 1c05 aa3f
00000630: 8a76 9936 23bc f23f 213a 37f4 355b edbf
00000640: d646 7bc7 82af e43f b3d5 0c66 37b0 f1bf
00000650: 704a 5375 383d d33f 64ec 1dae 35de f4bf
00000660: 6b33 98b5 bee8 e2bf c07e 1c18 a0bf b23f
00000670: 2310 8ee4 7825 ef3f 1b16 b5ff c3f4 f83f
00000680: 214c bdc9 c3cf f03f cbd7 8ba0 6245 aa3f
00000690: 4db6 3fa6 1f6d e2bf 7346 b96d 9007 ba3f
000006a0: 166b b784 f09b e53f 225c 60ce 971f f63f
000006b0: 284b e7d7 d8f8 bd3f 1bd8 54af 3d04 dabf
000006c0: bc5d b8fe f8b4 e03f 065e 34d5 3e60 dc3f
000006d0: 790f d6d6 474c d2bf 954b eab7 e3b1 d13f
000006e0: a84d 0579 eede e93f 6264 1c2b a6ce c33f
000006f0: 8e24 2048 303e e6bf 784f e49e 8788 adbf
00000700: 07aa 6be8 05b1 e0bf 27b7 de94 75fe e83f
00000710: 403b 9943 b3c9 d1bf 7b17 09d3 0229 c33f
00000720: eeca 1504 5db3 d53f 81c1 94a9 5cd8 d73f
00000730: cdac 6aac f4a7 d23f 87ac c032 6ad4 e6bf
00000740: 2dac 7645 a995 e7bf d0d4 91a0 6d21 f0bf
00000750: c6e1 6103 3570 e8bf f17c 3955 13cf e9bf
00000760: 6877 c0cc ca93 e63f c2d9 2751 2776 cebf
00000770: 8ac7 fe38 baae e83f 4d9b c1f8 9f7b 82bf
00000780: 527f 899d c14a d23f 5819 4c3a 6278 863f
00000790: e75a be73 38db eabf 4ade f823 5f87 f8bf
000007a0: 381e 2d27 8823 ec3f 3d13 9fc9 0a9c de3f
000007b0: b91d 0f49 25bd e53f 9e82 73c2 1d32 c13f
000007c0: 8d09 6dbc 2ce6 fe3f 57e3 74fc cf27 f4bf
000007d0: 7abd d94a d46c ee3f 50a1 626f f4bf d3bf
000007e0: b7e2 a41e e231 ffbf c563 d2dc aad3 e5bf
000007f0: b950 4728 2f50 ca3f 7447 f26b 28b0 f73f
